<?xml version="1.0"?>
<net name="Model0" version="11">
	<layers>
		<layer id="0" name="x" type="Parameter" version="opset1">
			<data shape="1,3,640,640" element_type="f32" />
			<output>
				<port id="0" precision="FP32" names="x">
					<dim>1</dim>
					<dim>3</dim>
					<dim>640</dim>
					<dim>640</dim>
				</port>
			</output>
		</layer>
		<layer id="1" name="__module.model.23/aten::unsqueeze/Unsqueeze_compressed" type="Const" version="opset1">
			<data element_type="f16" shape="1, 2, 8400" offset="0" size="33600" />
			<output>
				<port id="0" precision="FP16" names="1259,anchor_points">
					<dim>1</dim>
					<dim>2</dim>
					<dim>8400</dim>
				</port>
			</output>
		</layer>
		<layer id="2" name="__module.model.23/aten::unsqueeze/Unsqueeze" type="Convert" version="opset1">
			<data destination_type="f32" />
			<rt_info>
				<attribute name="decompression" version="0" />
			</rt_info>
			<input>
				<port id="0" precision="FP16">
					<dim>1</dim>
					<dim>2</dim>
					<dim>8400</dim>
				</port>
			</input>
			<output>
				<port id="1" precision="FP32">
					<dim>1</dim>
					<dim>2</dim>
					<dim>8400</dim>
				</port>
			</output>
		</layer>
		<layer id="3" name="x/fq_output_0/Constant_25379" type="Const" version="opset1">
			<data element_type="f32" shape="" offset="33600" size="4" />
			<output>
				<port id="0" precision="FP32" />
			</output>
		</layer>
		<layer id="4" name="x/fq_output_0/Constant_25380" type="Const" version="opset1">
			<data element_type="f32" shape="" offset="33604" size="4" />
			<output>
				<port id="0" precision="FP32" />
			</output>
		</layer>
		<layer id="5" name="x/fq_output_0/Constant_25381" type="Const" version="opset1">
			<data element_type="f32" shape="" offset="33600" size="4" />
			<output>
				<port id="0" precision="FP32" />
			</output>
		</layer>
		<layer id="6" name="x/fq_output_0/Constant_25382" type="Const" version="opset1">
			<data element_type="f32" shape="" offset="33604" size="4" />
			<output>
				<port id="0" precision="FP32" />
			</output>
		</layer>
		<layer id="7" name="x/fq_output_0" type="FakeQuantize" version="opset1">
			<data levels="256" auto_broadcast="numpy" />
			<input>
				<port id="0" precision="FP32">
					<dim>1</dim>
					<dim>3</dim>
					<dim>640</dim>
					<dim>640</dim>
				</port>
				<port id="1" precision="FP32" />
				<port id="2" precision="FP32" />
				<port id="3" precision="FP32" />
				<port id="4" precision="FP32" />
			</input>
			<output>
				<port id="5" precision="FP32">
					<dim>1</dim>
					<dim>3</dim>
					<dim>640</dim>
					<dim>640</dim>
				</port>
			</output>
		</layer>
		<layer id="8" name="Constant_497666" type="Const" version="opset1">
			<data element_type="i8" shape="16, 3, 3, 3" offset="33608" size="432" />
			<output>
				<port id="0" precision="I8">
					<dim>16</dim>
					<dim>3</dim>
					<dim>3</dim>
					<dim>3</dim>
				</port>
			</output>
		</layer>
		<layer id="9" name="Convert_497667" type="Convert" version="opset1">
			<data destination_type="f32" />
			<input>
				<port id="0" precision="I8">
					<dim>16</dim>
					<dim>3</dim>
					<dim>3</dim>
					<dim>3</dim>
				</port>
			</input>
			<output>
				<port id="1" precision="FP32">
					<dim>16</dim>
					<dim>3</dim>
					<dim>3</dim>
					<dim>3</dim>
				</port>
			</output>
		</layer>
		<layer id="10" name="Constant_497668" type="Const" version="opset1">
			<data element_type="f32" shape="16, 1, 1, 1" offset="34040" size="64" />
			<output>
				<port id="0" precision="FP32">
					<dim>16</dim>
					<dim>1</dim>
					<dim>1</dim>
					<dim>1</dim>
				</port>
			</output>
		</layer>
		<layer id="11" name="__module.model.0.conv/aten::_convolution/Convolution/fq_weights_1" type="Multiply" version="opset1">
			<data auto_broadcast="numpy" />
			<input>
				<port id="0" precision="FP32">
					<dim>16</dim>
					<dim>3</dim>
					<dim>3</dim>
					<dim>3</dim>
				</port>
				<port id="1" precision="FP32">
					<dim>16</dim>
					<dim>1</dim>
					<dim>1</dim>
					<dim>1</dim>
				</port>
			</input>
			<output>
				<port id="2" precision="FP32">
					<dim>16</dim>
					<dim>3</dim>
					<dim>3</dim>
					<dim>3</dim>
				</port>
			</output>
		</layer>
		<layer id="12" name="__module.model.0.conv/aten::_convolution/Convolution" type="Convolution" version="opset1">
			<data strides="2, 2" dilations="1, 1" pads_begin="1, 1" pads_end="1, 1" auto_pad="explicit" />
			<input>
				<port id="0" precision="FP32">
					<dim>1</dim>
					<dim>3</dim>
					<dim>640</dim>
					<dim>640</dim>
				</port>
				<port id="1" precision="FP32">
					<dim>16</dim>
					<dim>3</dim>
					<dim>3</dim>
					<dim>3</dim>
				</port>
			</input>
			<output>
				<port id="2" precision="FP32">
					<dim>1</dim>
					<dim>16</dim>
					<dim>320</dim>
					<dim>320</dim>
				</port>
			</output>
		</layer>
		<layer id="13" name="__module.model.0.conv/aten::_convolution/Reshape_compressed" type="Const" version="opset1">
			<data element_type="f16" shape="1, 16, 1, 1" offset="34104" size="32" />
			<output>
				<port id="0" precision="FP16">
					<dim>1</dim>
					<dim>16</dim>
					<dim>1</dim>
					<dim>1</dim>
				</port>
			</output>
		</layer>
		<layer id="14" name="__module.model.0.conv/aten::_convolution/Reshape" type="Convert" version="opset1">
			<data destination_type="f32" />
			<rt_info>
				<attribute name="decompression" version="0" />
			</rt_info>
			<input>
				<port id="0" precision="FP16">
					<dim>1</dim>
					<dim>16</dim>
					<dim>1</dim>
					<dim>1</dim>
				</port>
			</input>
			<output>
				<port id="1" precision="FP32">
					<dim>1</dim>
					<dim>16</dim>
					<dim>1</dim>
					<dim>1</dim>
				</port>
			</output>
		</layer>
		<layer id="15" name="__module.model.0.conv/aten::_convolution/Add" type="Add" version="opset1">
			<data auto_broadcast="numpy" />
			<input>
				<port id="0" precision="FP32">
					<dim>1</dim>
					<dim>16</dim>
					<dim>320</dim>
					<dim>320</dim>
				</port>
				<port id="1" precision="FP32">
					<dim>1</dim>
					<dim>16</dim>
					<dim>1</dim>
					<dim>1</dim>
				</port>
			</input>
			<output>
				<port id="2" precision="FP32" names="93_1">
					<dim>1</dim>
					<dim>16</dim>
					<dim>320</dim>
					<dim>320</dim>
				</port>
			</output>
		</layer>
		<layer id="16" name="__module.model.23.cv3.2.1.1.act/aten::silu_/Swish" type="Swish" version="opset4">
			<input>
				<port id="0" precision="FP32">
					<dim>1</dim>
					<dim>16</dim>
					<dim>320</dim>
					<dim>320</dim>
				</port>
			</input>
			<output>
				<port id="1" precision="FP32" names="93,input.1">
					<dim>1</dim>
					<dim>16</dim>
					<dim>320</dim>
					<dim>320</dim>
				</port>
			</output>
		</layer>
		<layer id="17" name="__module.model.23.cv3.2.1.1.act/aten::silu_/Swish/fq_output_0/Constant_25389" type="Const" version="opset1">
			<data element_type="f32" shape="" offset="34136" size="4" />
			<output>
				<port id="0" precision="FP32" />
			</output>
		</layer>
		<layer id="18" name="__module.model.23.cv3.2.1.1.act/aten::silu_/Swish/fq_output_0/Constant_25390" type="Const" version="opset1">
			<data element_type="f32" shape="" offset="34140" size="4" />
			<output>
				<port id="0" precision="FP32" />
			</output>
		</layer>
		<layer id="19" name="__module.model.23.cv3.2.1.1.act/aten::silu_/Swish/fq_output_0/Constant_25391" type="Const" version="opset1">
			<data element_type="f32" shape="" offset="34136" size="4" />
			<output>
				<port id="0" precision="FP32" />
			</output>
		</layer>
		<layer id="20" name="__module.model.23.cv3.2.1.1.act/aten::silu_/Swish/fq_output_0/Constant_25392" type="Const" version="opset1">
			<data element_type="f32" shape="" offset="34140" size="4" />
			<output>
				<port id="0" precision="FP32" />
			</output>
		</layer>
		<layer id="21" name="__module.model.23.cv3.2.1.1.act/aten::silu_/Swish/fq_output_0" type="FakeQuantize" version="opset1">
			<data levels="256" auto_broadcast="numpy" />
			<input>
				<port id="0" precision="FP32">
					<dim>1</dim>
					<dim>16</dim>
					<dim>320</dim>
					<dim>320</dim>
				</port>
				<port id="1" precision="FP32" />
				<port id="2" precision="FP32" />
				<port id="3" precision="FP32" />
				<port id="4" precision="FP32" />
			</input>
			<output>
				<port id="5" precision="FP32">
					<dim>1</dim>
					<dim>16</dim>
					<dim>320</dim>
					<dim>320</dim>
				</port>
			</output>
		</layer>
		<layer id="22" name="Constant_497671" type="Const" version="opset1">
			<data element_type="i8" shape="32, 16, 3, 3" offset="34144" size="4608" />
			<output>
				<port id="0" precision="I8">
					<dim>32</dim>
					<dim>16</dim>
					<dim>3</dim>
					<dim>3</dim>
				</port>
			</output>
		</layer>
		<layer id="23" name="Convert_497672" type="Convert" version="opset1">
			<data destination_type="f32" />
			<input>
				<port id="0" precision="I8">
					<dim>32</dim>
					<dim>16</dim>
					<dim>3</dim>
					<dim>3</dim>
				</port>
			</input>
			<output>
				<port id="1" precision="FP32">
					<dim>32</dim>
					<dim>16</dim>
					<dim>3</dim>
					<dim>3</dim>
				</port>
			</output>
		</layer>
		<layer id="24" name="Constant_497673" type="Const" version="opset1">
			<data element_type="f32" shape="32, 1, 1, 1" offset="38752" size="128" />
			<output>
				<port id="0" precision="FP32">
					<dim>32</dim>
					<dim>1</dim>
					<dim>1</dim>
					<dim>1</dim>
				</port>
			</output>
		</layer>
		<layer id="25" name="__module.model.1.conv/aten::_convolution/Convolution/fq_weights_1" type="Multiply" version="opset1">
			<data auto_broadcast="numpy" />
			<input>
				<port id="0" precision="FP32">
					<dim>32</dim>
					<dim>16</dim>
					<dim>3</dim>
					<dim>3</dim>
				</port>
				<port id="1" precision="FP32">
					<dim>32</dim>
					<dim>1</dim>
					<dim>1</dim>
					<dim>1</dim>
				</port>
			</input>
			<output>
				<port id="2" precision="FP32">
					<dim>32</dim>
					<dim>16</dim>
					<dim>3</dim>
					<dim>3</dim>
				</port>
			</output>
		</layer>
		<layer id="26" name="__module.model.1.conv/aten::_convolution/Convolution" type="Convolution" version="opset1">
			<data strides="2, 2" dilations="1, 1" pads_begin="1, 1" pads_end="1, 1" auto_pad="explicit" />
			<input>
				<port id="0" precision="FP32">
					<dim>1</dim>
					<dim>16</dim>
					<dim>320</dim>
					<dim>320</dim>
				</port>
				<port id="1" precision="FP32">
					<dim>32</dim>
					<dim>16</dim>
					<dim>3</dim>
					<dim>3</dim>
				</port>
			</input>
			<output>
				<port id="2" precision="FP32">
					<dim>1</dim>
					<dim>32</dim>
					<dim>160</dim>
					<dim>160</dim>
				</port>
			</output>
		</layer>
		<layer id="27" name="__module.model.1.conv/aten::_convolution/Reshape_compressed" type="Const" version="opset1">
			<data element_type="f16" shape="1, 32, 1, 1" offset="38880" size="64" />
			<output>
				<port id="0" precision="FP16">
					<dim>1</dim>
					<dim>32</dim>
					<dim>1</dim>
					<dim>1</dim>
				</port>
			</output>
		</layer>
		<layer id="28" name="__module.model.1.conv/aten::_convolution/Reshape" type="Convert" version="opset1">
			<data destination_type="f32" />
			<rt_info>
				<attribute name="decompression" version="0" />
			</rt_info>
			<input>
				<port id="0" precision="FP16">
					<dim>1</dim>
					<dim>32</dim>
					<dim>1</dim>
					<dim>1</dim>
				</port>
			</input>
			<output>
				<port id="1" precision="FP32">
					<dim>1</dim>
					<dim>32</dim>
					<dim>1</dim>
					<dim>1</dim>
				</port>
			</output>
		</layer>
		<layer id="29" name="__module.model.1.conv/aten::_convolution/Add" type="Add" version="opset1">
			<data auto_broadcast="numpy" />
			<input>
				<port id="0" precision="FP32">
					<dim>1</dim>
					<dim>32</dim>
					<dim>160</dim>
					<dim>160</dim>
				</port>
				<port id="1" precision="FP32">
					<dim>1</dim>
					<dim>32</dim>
					<dim>1</dim>
					<dim>1</dim>
				</port>
			</input>
			<output>
				<port id="2" precision="FP32" names="107_1">
					<dim>1</dim>
					<dim>32</dim>
					<dim>160</dim>
					<dim>160</dim>
				</port>
			</output>
		</layer>
		<layer id="30" name="__module.model.23.cv3.2.1.1.act/aten::silu_/Swish_1" type="Swish" version="opset4">
			<input>
				<port id="0" precision="FP32">
					<dim>1</dim>
					<dim>32</dim>
					<dim>160</dim>
					<dim>160</dim>
				</port>
			</input>
			<output>
				<port id="1" precision="FP32" names="107,input.5">
					<dim>1</dim>
					<dim>32</dim>
					<dim>160</dim>
					<dim>160</dim>
				</port>
			</output>
		</layer>
		<layer id="31" name="__module.model.23.cv3.2.1.1.act/aten::silu_/Swish_1/fq_output_0/Constant_25399" type="Const" version="opset1">
			<data element_type="f32" shape="" offset="38944" size="4" />
			<output>
				<port id="0" precision="FP32" />
			</output>
		</layer>
		<layer id="32" name="__module.model.23.cv3.2.1.1.act/aten::silu_/Swish_1/fq_output_0/Constant_25400" type="Const" version="opset1">
			<data element_type="f32" shape="" offset="38948" size="4" />
			<output>
				<port id="0" precision="FP32" />
			</output>
		</layer>
		<layer id="33" name="__module.model.23.cv3.2.1.1.act/aten::silu_/Swish_1/fq_output_0/Constant_25401" type="Const" version="opset1">
			<data element_type="f32" shape="" offset="38944" size="4" />
			<output>
				<port id="0" precision="FP32" />
			</output>
		</layer>
		<layer id="34" name="__module.model.23.cv3.2.1.1.act/aten::silu_/Swish_1/fq_output_0/Constant_25402" type="Const" version="opset1">
			<data element_type="f32" shape="" offset="38948" size="4" />
			<output>
				<port id="0" precision="FP32" />
			</output>
		</layer>
		<layer id="35" name="__module.model.23.cv3.2.1.1.act/aten::silu_/Swish_1/fq_output_0" type="FakeQuantize" version="opset1">
			<data levels="256" auto_broadcast="numpy" />
			<input>
				<port id="0" precision="FP32">
					<dim>1</dim>
					<dim>32</dim>
					<dim>160</dim>
					<dim>160</dim>
				</port>
				<port id="1" precision="FP32" />
				<port id="2" precision="FP32" />
				<port id="3" precision="FP32" />
				<port id="4" precision="FP32" />
			</input>
			<output>
				<port id="5" precision="FP32">
					<dim>1</dim>
					<dim>32</dim>
					<dim>160</dim>
					<dim>160</dim>
				</port>
			</output>
		</layer>
		<layer id="36" name="Constant_497676" type="Const" version="opset1">
			<data element_type="i8" shape="32, 32, 1, 1" offset="38952" size="1024" />
			<output>
				<port id="0" precision="I8">
					<dim>32</dim>
					<dim>32</dim>
					<dim>1</dim>
					<dim>1</dim>
				</port>
			</output>
		</layer>
		<layer id="37" name="Convert_497677" type="Convert" version="opset1">
			<data destination_type="f32" />
			<input>
				<port id="0" precision="I8">
					<dim>32</dim>
					<dim>32</dim>
					<dim>1</dim>
					<dim>1</dim>
				</port>
			</input>
			<output>
				<port id="1" precision="FP32">
					<dim>32</dim>
					<dim>32</dim>
					<dim>1</dim>
					<dim>1</dim>
				</port>
			</output>
		</layer>
		<layer id="38" name="Constant_497678" type="Const" version="opset1">
			<data element_type="f32" shape="32, 1, 1, 1" offset="39976" size="128" />
			<output>
				<port id="0" precision="FP32">
					<dim>32</dim>
					<dim>1</dim>
					<dim>1</dim>
					<dim>1</dim>
				</port>
			</output>
		</layer>
		<layer id="39" name="__module.model.2.cv1.conv/aten::_convolution/Convolution/fq_weights_1" type="Multiply" version="opset1">
			<data auto_broadcast="numpy" />
			<input>
				<port id="0" precision="FP32">
					<dim>32</dim>
					<dim>32</dim>
					<dim>1</dim>
					<dim>1</dim>
				</port>
				<port id="1" precision="FP32">
					<dim>32</dim>
					<dim>1</dim>
					<dim>1</dim>
					<dim>1</dim>
				</port>
			</input>
			<output>
				<port id="2" precision="FP32">
					<dim>32</dim>
					<dim>32</dim>
					<dim>1</dim>
					<dim>1</dim>
				</port>
			</output>
		</layer>
		<layer id="40" name="__module.model.2.cv1.conv/aten::_convolution/Convolution" type="Convolution" version="opset1">
			<data strides="1, 1" dilations="1, 1" pads_begin="0, 0" pads_end="0, 0" auto_pad="explicit" />
			<input>
				<port id="0" precision="FP32">
					<dim>1</dim>
					<dim>32</dim>
					<dim>160</dim>
					<dim>160</dim>
				</port>
				<port id="1" precision="FP32">
					<dim>32</dim>
					<dim>32</dim>
					<dim>1</dim>
					<dim>1</dim>
				</port>
			</input>
			<output>
				<port id="2" precision="FP32">
					<dim>1</dim>
					<dim>32</dim>
					<dim>160</dim>
					<dim>160</dim>
				</port>
			</output>
		</layer>
		<layer id="41" name="__module.model.2.cv1.conv/aten::_convolution/Reshape_compressed" type="Const" version="opset1">
			<data element_type="f16" shape="1, 32, 1, 1" offset="40104" size="64" />
			<output>
				<port id="0" precision="FP16">
					<dim>1</dim>
					<dim>32</dim>
					<dim>1</dim>
					<dim>1</dim>
				</port>
			</output>
		</layer>
		<layer id="42" name="__module.model.2.cv1.conv/aten::_convolution/Reshape" type="Convert" version="opset1">
			<data destination_type="f32" />
			<rt_info>
				<attribute name="decompression" version="0" />
			</rt_info>
			<input>
				<port id="0" precision="FP16">
					<dim>1</dim>
					<dim>32</dim>
					<dim>1</dim>
					<dim>1</dim>
				</port>
			</input>
			<output>
				<port id="1" precision="FP32">
					<dim>1</dim>
					<dim>32</dim>
					<dim>1</dim>
					<dim>1</dim>
				</port>
			</output>
		</layer>
		<layer id="43" name="__module.model.2.cv1.conv/aten::_convolution/Add" type="Add" version="opset1">
			<data auto_broadcast="numpy" />
			<input>
				<port id="0" precision="FP32">
					<dim>1</dim>
					<dim>32</dim>
					<dim>160</dim>
					<dim>160</dim>
				</port>
				<port id="1" precision="FP32">
					<dim>1</dim>
					<dim>32</dim>
					<dim>1</dim>
					<dim>1</dim>
				</port>
			</input>
			<output>
				<port id="2" precision="FP32" names="125_1">
					<dim>1</dim>
					<dim>32</dim>
					<dim>160</dim>
					<dim>160</dim>
				</port>
			</output>
		</layer>
		<layer id="44" name="__module.model.23.cv3.2.1.1.act/aten::silu_/Swish_2" type="Swish" version="opset4">
			<input>
				<port id="0" precision="FP32">
					<dim>1</dim>
					<dim>32</dim>
					<dim>160</dim>
					<dim>160</dim>
				</port>
			</input>
			<output>
				<port id="1" precision="FP32" names="125,input.9">
					<dim>1</dim>
					<dim>32</dim>
					<dim>160</dim>
					<dim>160</dim>
				</port>
			</output>
		</layer>
		<layer id="45" name="__module.model.23.cv3.2.1.1.act/aten::silu_/Swish_2/fq_output_0/Constant_25244" type="Const" version="opset1">
			<data element_type="f32" shape="" offset="40168" size="4" />
			<output>
				<port id="0" precision="FP32" />
			</output>
		</layer>
		<layer id="46" name="__module.model.23.cv3.2.1.1.act/aten::silu_/Swish_2/fq_output_0/Constant_25245" type="Const" version="opset1">
			<data element_type="f32" shape="" offset="40172" size="4" />
			<output>
				<port id="0" precision="FP32" />
			</output>
		</layer>
		<layer id="47" name="__module.model.23.cv3.2.1.1.act/aten::silu_/Swish_2/fq_output_0/Constant_25246" type="Const" version="opset1">
			<data element_type="f32" shape="" offset="40168" size="4" />
			<output>
				<port id="0" precision="FP32" />
			</output>
		</layer>
		<layer id="48" name="__module.model.23.cv3.2.1.1.act/aten::silu_/Swish_2/fq_output_0/Constant_25247" type="Const" version="opset1">
			<data element_type="f32" shape="" offset="40172" size="4" />
			<output>
				<port id="0" precision="FP32" />
			</output>
		</layer>
		<layer id="49" name="__module.model.23.cv3.2.1.1.act/aten::silu_/Swish_2/fq_output_0" type="FakeQuantize" version="opset1">
			<data levels="256" auto_broadcast="numpy" />
			<input>
				<port id="0" precision="FP32">
					<dim>1</dim>
					<dim>32</dim>
					<dim>160</dim>
					<dim>160</dim>
				</port>
				<port id="1" precision="FP32" />
				<port id="2" precision="FP32" />
				<port id="3" precision="FP32" />
				<port id="4" precision="FP32" />
			</input>
			<output>
				<port id="5" precision="FP32">
					<dim>1</dim>
					<dim>32</dim>
					<dim>160</dim>
					<dim>160</dim>
				</port>
			</output>
		</layer>
		<layer id="50" name="113" type="Const" version="opset1">
			<data element_type="i64" shape="" offset="40176" size="8" />
			<output>
				<port id="0" precision="I64" names="113" />
			</output>
		</layer>
		<layer id="51" name="Constant_216" type="Const" version="opset1">
			<data element_type="i64" shape="2" offset="40184" size="16" />
			<output>
				<port id="0" precision="I64" names="127">
					<dim>2</dim>
				</port>
			</output>
		</layer>
		<layer id="52" name="__module.model.2/prim::ListUnpack" type="VariadicSplit" version="opset1">
			<input>
				<port id="0" precision="FP32">
					<dim>1</dim>
					<dim>32</dim>
					<dim>160</dim>
					<dim>160</dim>
				</port>
				<port id="1" precision="I64" />
				<port id="2" precision="I64">
					<dim>2</dim>
				</port>
			</input>
			<output>
				<port id="3" precision="FP32" names="129">
					<dim>1</dim>
					<dim>16</dim>
					<dim>160</dim>
					<dim>160</dim>
				</port>
				<port id="4" precision="FP32" names="130,input.11">
					<dim>1</dim>
					<dim>16</dim>
					<dim>160</dim>
					<dim>160</dim>
				</port>
			</output>
		</layer>
		<layer id="53" name="Constant_497681" type="Const" version="opset1">
			<data element_type="i8" shape="8, 16, 3, 3" offset="40200" size="1152" />
			<output>
				<port id="0" precision="I8">
					<dim>8</dim>
					<dim>16</dim>
					<dim>3</dim>
					<dim>3</dim>
				</port>
			</output>
		</layer>
		<layer id="54" name="Convert_497682" type="Convert" version="opset1">
			<data destination_type="f32" />
			<input>
				<port id="0" precision="I8">
					<dim>8</dim>
					<dim>16</dim>
					<dim>3</dim>
					<dim>3</dim>
				</port>
			</input>
			<output>
				<port id="1" precision="FP32">
					<dim>8</dim>
					<dim>16</dim>
					<dim>3</dim>
					<dim>3</dim>
				</port>
			</output>
		</layer>
		<layer id="55" name="Constant_497683" type="Const" version="opset1">
			<data element_type="f32" shape="8, 1, 1, 1" offset="41352" size="32" />
			<output>
				<port id="0" precision="FP32">
					<dim>8</dim>
					<dim>1</dim>
					<dim>1</dim>
					<dim>1</dim>
				</port>
			</output>
		</layer>
		<layer id="56" name="__module.model.2.m.0.cv1.conv/aten::_convolution/Convolution/fq_weights_1" type="Multiply" version="opset1">
			<data auto_broadcast="numpy" />
			<input>
				<port id="0" precision="FP32">
					<dim>8</dim>
					<dim>16</dim>
					<dim>3</dim>
					<dim>3</dim>
				</port>
				<port id="1" precision="FP32">
					<dim>8</dim>
					<dim>1</dim>
					<dim>1</dim>
					<dim>1</dim>
				</port>
			</input>
			<output>
				<port id="2" precision="FP32">
					<dim>8</dim>
					<dim>16</dim>
					<dim>3</dim>
					<dim>3</dim>
				</port>
			</output>
		</layer>
		<layer id="57" name="__module.model.2.m.0.cv1.conv/aten::_convolution/Convolution" type="Convolution" version="opset1">
			<data strides="1, 1" dilations="1, 1" pads_begin="1, 1" pads_end="1, 1" auto_pad="explicit" />
			<input>
				<port id="0" precision="FP32">
					<dim>1</dim>
					<dim>16</dim>
					<dim>160</dim>
					<dim>160</dim>
				</port>
				<port id="1" precision="FP32">
					<dim>8</dim>
					<dim>16</dim>
					<dim>3</dim>
					<dim>3</dim>
				</port>
			</input>
			<output>
				<port id="2" precision="FP32">
					<dim>1</dim>
					<dim>8</dim>
					<dim>160</dim>
					<dim>160</dim>
				</port>
			</output>
		</layer>
		<layer id="58" name="__module.model.2.m.0.cv1.conv/aten::_convolution/Reshape_compressed" type="Const" version="opset1">
			<data element_type="f16" shape="1, 8, 1, 1" offset="41384" size="16" />
			<output>
				<port id="0" precision="FP16">
					<dim>1</dim>
					<dim>8</dim>
					<dim>1</dim>
					<dim>1</dim>
				</port>
			</output>
		</layer>
		<layer id="59" name="__module.model.2.m.0.cv1.conv/aten::_convolution/Reshape" type="Convert" version="opset1">
			<data destination_type="f32" />
			<rt_info>
				<attribute name="decompression" version="0" />
			</rt_info>
			<input>
				<port id="0" precision="FP16">
					<dim>1</dim>
					<dim>8</dim>
					<dim>1</dim>
					<dim>1</dim>
				</port>
			</input>
			<output>
				<port id="1" precision="FP32">
					<dim>1</dim>
					<dim>8</dim>
					<dim>1</dim>
					<dim>1</dim>
				</port>
			</output>
		</layer>
		<layer id="60" name="__module.model.2.m.0.cv1.conv/aten::_convolution/Add" type="Add" version="opset1">
			<data auto_broadcast="numpy" />
			<input>
				<port id="0" precision="FP32">
					<dim>1</dim>
					<dim>8</dim>
					<dim>160</dim>
					<dim>160</dim>
				</port>
				<port id="1" precision="FP32">
					<dim>1</dim>
					<dim>8</dim>
					<dim>1</dim>
					<dim>1</dim>
				</port>
			</input>
			<output>
				<port id="2" precision="FP32" names="140_1">
					<dim>1</dim>
					<dim>8</dim>
					<dim>160</dim>
					<dim>160</dim>
				</port>
			</output>
		</layer>
		<layer id="61" name="__module.model.23.cv3.2.1.1.act/aten::silu_/Swish_3" type="Swish" version="opset4">
			<input>
				<port id="0" precision="FP32">
					<dim>1</dim>
					<dim>8</dim>
					<dim>160</dim>
					<dim>160</dim>
				</port>
			</input>
			<output>
				<port id="1" precision="FP32" names="140,input.13">
					<dim>1</dim>
					<dim>8</dim>
					<dim>160</dim>
					<dim>160</dim>
				</port>
			</output>
		</layer>
		<layer id="62" name="__module.model.23.cv3.2.1.1.act/aten::silu_/Swish_3/fq_output_0/Constant_25414" type="Const" version="opset1">
			<data element_type="f32" shape="" offset="41400" size="4" />
			<output>
				<port id="0" precision="FP32" />
			</output>
		</layer>
		<layer id="63" name="__module.model.23.cv3.2.1.1.act/aten::silu_/Swish_3/fq_output_0/Constant_25415" type="Const" version="opset1">
			<data element_type="f32" shape="" offset="41404" size="4" />
			<output>
				<port id="0" precision="FP32" />
			</output>
		</layer>
		<layer id="64" name="__module.model.23.cv3.2.1.1.act/aten::silu_/Swish_3/fq_output_0/Constant_25416" type="Const" version="opset1">
			<data element_type="f32" shape="" offset="41400" size="4" />
			<output>
				<port id="0" precision="FP32" />
			</output>
		</layer>
		<layer id="65" name="__module.model.23.cv3.2.1.1.act/aten::silu_/Swish_3/fq_output_0/Constant_25417" type="Const" version="opset1">
			<data element_type="f32" shape="" offset="41404" size="4" />
			<output>
				<port id="0" precision="FP32" />
			</output>
		</layer>
		<layer id="66" name="__module.model.23.cv3.2.1.1.act/aten::silu_/Swish_3/fq_output_0" type="FakeQuantize" version="opset1">
			<data levels="256" auto_broadcast="numpy" />
			<input>
				<port id="0" precision="FP32">
					<dim>1</dim>
					<dim>8</dim>
					<dim>160</dim>
					<dim>160</dim>
				</port>
				<port id="1" precision="FP32" />
				<port id="2" precision="FP32" />
				<port id="3" precision="FP32" />
				<port id="4" precision="FP32" />
			</input>
			<output>
				<port id="5" precision="FP32">
					<dim>1</dim>
					<dim>8</dim>
					<dim>160</dim>
					<dim>160</dim>
				</port>
			</output>
		</layer>
		<layer id="67" name="Constant_497686" type="Const" version="opset1">
			<data element_type="i8" shape="16, 8, 3, 3" offset="41408" size="1152" />
			<output>
				<port id="0" precision="I8">
					<dim>16</dim>
					<dim>8</dim>
					<dim>3</dim>
					<dim>3</dim>
				</port>
			</output>
		</layer>
		<layer id="68" name="Convert_497687" type="Convert" version="opset1">
			<data destination_type="f32" />
			<input>
				<port id="0" precision="I8">
					<dim>16</dim>
					<dim>8</dim>
					<dim>3</dim>
					<dim>3</dim>
				</port>
			</input>
			<output>
				<port id="1" precision="FP32">
					<dim>16</dim>
					<dim>8</dim>
					<dim>3</dim>
					<dim>3</dim>
				</port>
			</output>
		</layer>
		<layer id="69" name="Constant_497688" type="Const" version="opset1">
			<data element_type="f32" shape="16, 1, 1, 1" offset="42560" size="64" />
			<output>
				<port id="0" precision="FP32">
					<dim>16</dim>
					<dim>1</dim>
					<dim>1</dim>
					<dim>1</dim>
				</port>
			</output>
		</layer>
		<layer id="70" name="__module.model.2.m.0.cv2.conv/aten::_convolution/Convolution/fq_weights_1" type="Multiply" version="opset1">
			<data auto_broadcast="numpy" />
			<input>
				<port id="0" precision="FP32">
					<dim>16</dim>
					<dim>8</dim>
					<dim>3</dim>
					<dim>3</dim>
				</port>
				<port id="1" precision="FP32">
					<dim>16</dim>
					<dim>1</dim>
					<dim>1</dim>
					<dim>1</dim>
				</port>
			</input>
			<output>
				<port id="2" precision="FP32">
					<dim>16</dim>
					<dim>8</dim>
					<dim>3</dim>
					<dim>3</dim>
				</port>
			</output>
		</layer>
		<layer id="71" name="__module.model.2.m.0.cv2.conv/aten::_convolution/Convolution" type="Convolution" version="opset1">
			<data strides="1, 1" dilations="1, 1" pads_begin="1, 1" pads_end="1, 1" auto_pad="explicit" />
			<input>
				<port id="0" precision="FP32">
					<dim>1</dim>
					<dim>8</dim>
					<dim>160</dim>
					<dim>160</dim>
				</port>
				<port id="1" precision="FP32">
					<dim>16</dim>
					<dim>8</dim>
					<dim>3</dim>
					<dim>3</dim>
				</port>
			</input>
			<output>
				<port id="2" precision="FP32">
					<dim>1</dim>
					<dim>16</dim>
					<dim>160</dim>
					<dim>160</dim>
				</port>
			</output>
		</layer>
		<layer id="72" name="__module.model.2.m.0.cv2.conv/aten::_convolution/Reshape_compressed" type="Const" version="opset1">
			<data element_type="f16" shape="1, 16, 1, 1" offset="42624" size="32" />
			<output>
				<port id="0" precision="FP16">
					<dim>1</dim>
					<dim>16</dim>
					<dim>1</dim>
					<dim>1</dim>
				</port>
			</output>
		</layer>
		<layer id="73" name="__module.model.2.m.0.cv2.conv/aten::_convolution/Reshape" type="Convert" version="opset1">
			<data destination_type="f32" />
			<rt_info>
				<attribute name="decompression" version="0" />
			</rt_info>
			<input>
				<port id="0" precision="FP16">
					<dim>1</dim>
					<dim>16</dim>
					<dim>1</dim>
					<dim>1</dim>
				</port>
			</input>
			<output>
				<port id="1" precision="FP32">
					<dim>1</dim>
					<dim>16</dim>
					<dim>1</dim>
					<dim>1</dim>
				</port>
			</output>
		</layer>
		<layer id="74" name="__module.model.2.m.0.cv2.conv/aten::_convolution/Add" type="Add" version="opset1">
			<data auto_broadcast="numpy" />
			<input>
				<port id="0" precision="FP32">
					<dim>1</dim>
					<dim>16</dim>
					<dim>160</dim>
					<dim>160</dim>
				</port>
				<port id="1" precision="FP32">
					<dim>1</dim>
					<dim>16</dim>
					<dim>1</dim>
					<dim>1</dim>
				</port>
			</input>
			<output>
				<port id="2" precision="FP32" names="149_1">
					<dim>1</dim>
					<dim>16</dim>
					<dim>160</dim>
					<dim>160</dim>
				</port>
			</output>
		</layer>
		<layer id="75" name="__module.model.23.cv3.2.1.1.act/aten::silu_/Swish_4" type="Swish" version="opset4">
			<input>
				<port id="0" precision="FP32">
					<dim>1</dim>
					<dim>16</dim>
					<dim>160</dim>
					<dim>160</dim>
				</port>
			</input>
			<output>
				<port id="1" precision="FP32" names="149,input.17">
					<dim>1</dim>
					<dim>16</dim>
					<dim>160</dim>
					<dim>160</dim>
				</port>
			</output>
		</layer>
		<layer id="76" name="__module.model.23.cv3.2.1.1.act/aten::silu_/Swish_4/fq_output_0/Constant_25424" type="Const" version="opset1">
			<data element_type="f32" shape="" offset="42656" size="4" />
			<output>
				<port id="0" precision="FP32" />
			</output>
		</layer>
		<layer id="77" name="__module.model.23.cv3.2.1.1.act/aten::silu_/Swish_4/fq_output_0/Constant_25425" type="Const" version="opset1">
			<data element_type="f32" shape="" offset="42660" size="4" />
			<output>
				<port id="0" precision="FP32" />
			</output>
		</layer>
		<layer id="78" name="__module.model.23.cv3.2.1.1.act/aten::silu_/Swish_4/fq_output_0/Constant_25426" type="Const" version="opset1">
			<data element_type="f32" shape="" offset="42656" size="4" />
			<output>
				<port id="0" precision="FP32" />
			</output>
		</layer>
		<layer id="79" name="__module.model.23.cv3.2.1.1.act/aten::silu_/Swish_4/fq_output_0/Constant_25427" type="Const" version="opset1">
			<data element_type="f32" shape="" offset="42660" size="4" />
			<output>
				<port id="0" precision="FP32" />
			</output>
		</layer>
		<layer id="80" name="__module.model.23.cv3.2.1.1.act/aten::silu_/Swish_4/fq_output_0" type="FakeQuantize" version="opset1">
			<data levels="256" auto_broadcast="numpy" />
			<input>
				<port id="0" precision="FP32">
					<dim>1</dim>
					<dim>16</dim>
					<dim>160</dim>
					<dim>160</dim>
				</port>
				<port id="1" precision="FP32" />
				<port id="2" precision="FP32" />
				<port id="3" precision="FP32" />
				<port id="4" precision="FP32" />
			</input>
			<output>
				<port id="5" precision="FP32">
					<dim>1</dim>
					<dim>16</dim>
					<dim>160</dim>
					<dim>160</dim>
				</port>
			</output>
		</layer>
		<layer id="81" name="__module.model.2.m.0/aten::add/Add" type="Add" version="opset1">
			<data auto_broadcast="numpy" />
			<input>
				<port id="0" precision="FP32">
					<dim>1</dim>
					<dim>16</dim>
					<dim>160</dim>
					<dim>160</dim>
				</port>
				<port id="1" precision="FP32">
					<dim>1</dim>
					<dim>16</dim>
					<dim>160</dim>
					<dim>160</dim>
				</port>
			</input>
			<output>
				<port id="2" precision="FP32" names="151">
					<dim>1</dim>
					<dim>16</dim>
					<dim>160</dim>
					<dim>160</dim>
				</port>
			</output>
		</layer>
		<layer id="82" name="__module.model.2.m.0/aten::add/Add/fq_output_0/Constant_25249" type="Const" version="opset1">
			<data element_type="f32" shape="" offset="40168" size="4" />
			<output>
				<port id="0" precision="FP32" />
			</output>
		</layer>
		<layer id="83" name="__module.model.2.m.0/aten::add/Add/fq_output_0/Constant_25250" type="Const" version="opset1">
			<data element_type="f32" shape="" offset="40172" size="4" />
			<output>
				<port id="0" precision="FP32" />
			</output>
		</layer>
		<layer id="84" name="__module.model.2.m.0/aten::add/Add/fq_output_0/Constant_25251" type="Const" version="opset1">
			<data element_type="f32" shape="" offset="40168" size="4" />
			<output>
				<port id="0" precision="FP32" />
			</output>
		</layer>
		<layer id="85" name="__module.model.2.m.0/aten::add/Add/fq_output_0/Constant_25252" type="Const" version="opset1">
			<data element_type="f32" shape="" offset="40172" size="4" />
			<output>
				<port id="0" precision="FP32" />
			</output>
		</layer>
		<layer id="86" name="__module.model.2.m.0/aten::add/Add/fq_output_0" type="FakeQuantize" version="opset1">
			<data levels="256" auto_broadcast="numpy" />
			<input>
				<port id="0" precision="FP32">
					<dim>1</dim>
					<dim>16</dim>
					<dim>160</dim>
					<dim>160</dim>
				</port>
				<port id="1" precision="FP32" />
				<port id="2" precision="FP32" />
				<port id="3" precision="FP32" />
				<port id="4" precision="FP32" />
			</input>
			<output>
				<port id="5" precision="FP32">
					<dim>1</dim>
					<dim>16</dim>
					<dim>160</dim>
					<dim>160</dim>
				</port>
			</output>
		</layer>
		<layer id="87" name="__module.model.2/aten::cat/Concat" type="Concat" version="opset1">
			<data axis="1" />
			<input>
				<port id="0" precision="FP32">
					<dim>1</dim>
					<dim>16</dim>
					<dim>160</dim>
					<dim>160</dim>
				</port>
				<port id="1" precision="FP32">
					<dim>1</dim>
					<dim>16</dim>
					<dim>160</dim>
					<dim>160</dim>
				</port>
				<port id="2" precision="FP32">
					<dim>1</dim>
					<dim>16</dim>
					<dim>160</dim>
					<dim>160</dim>
				</port>
			</input>
			<output>
				<port id="3" precision="FP32" names="153,input.19">
					<dim>1</dim>
					<dim>48</dim>
					<dim>160</dim>
					<dim>160</dim>
				</port>
			</output>
		</layer>
		<layer id="88" name="Constant_497691" type="Const" version="opset1">
			<data element_type="i8" shape="64, 48, 1, 1" offset="42664" size="3072" />
			<output>
				<port id="0" precision="I8">
					<dim>64</dim>
					<dim>48</dim>
					<dim>1</dim>
					<dim>1</dim>
				</port>
			</output>
		</layer>
		<layer id="89" name="Convert_497692" type="Convert" version="opset1">
			<data destination_type="f32" />
			<input>
				<port id="0" precision="I8">
					<dim>64</dim>
					<dim>48</dim>
					<dim>1</dim>
					<dim>1</dim>
				</port>
			</input>
			<output>
				<port id="1" precision="FP32">
					<dim>64</dim>
					<dim>48</dim>
					<dim>1</dim>
					<dim>1</dim>
				</port>
			</output>
		</layer>
		<layer id="90" name="Constant_497693" type="Const" version="opset1">
			<data element_type="f32" shape="64, 1, 1, 1" offset="45736" size="256" />
			<output>
				<port id="0" precision="FP32">
					<dim>64</dim>
					<dim>1</dim>
					<dim>1</dim>
					<dim>1</dim>
				</port>
			</output>
		</layer>
		<layer id="91" name="__module.model.2.cv2.conv/aten::_convolution/Convolution/fq_weights_1" type="Multiply" version="opset1">
			<data auto_broadcast="numpy" />
			<input>
				<port id="0" precision="FP32">
					<dim>64</dim>
					<dim>48</dim>
					<dim>1</dim>
					<dim>1</dim>
				</port>
				<port id="1" precision="FP32">
					<dim>64</dim>
					<dim>1</dim>
					<dim>1</dim>
					<dim>1</dim>
				</port>
			</input>
			<output>
				<port id="2" precision="FP32">
					<dim>64</dim>
					<dim>48</dim>
					<dim>1</dim>
					<dim>1</dim>
				</port>
			</output>
		</layer>
		<layer id="92" name="__module.model.2.cv2.conv/aten::_convolution/Convolution" type="Convolution" version="opset1">
			<data strides="1, 1" dilations="1, 1" pads_begin="0, 0" pads_end="0, 0" auto_pad="explicit" />
			<input>
				<port id="0" precision="FP32">
					<dim>1</dim>
					<dim>48</dim>
					<dim>160</dim>
					<dim>160</dim>
				</port>
				<port id="1" precision="FP32">
					<dim>64</dim>
					<dim>48</dim>
					<dim>1</dim>
					<dim>1</dim>
				</port>
			</input>
			<output>
				<port id="2" precision="FP32">
					<dim>1</dim>
					<dim>64</dim>
					<dim>160</dim>
					<dim>160</dim>
				</port>
			</output>
		</layer>
		<layer id="93" name="__module.model.2.cv2.conv/aten::_convolution/Reshape_compressed" type="Const" version="opset1">
			<data element_type="f16" shape="1, 64, 1, 1" offset="45992" size="128" />
			<output>
				<port id="0" precision="FP16">
					<dim>1</dim>
					<dim>64</dim>
					<dim>1</dim>
					<dim>1</dim>
				</port>
			</output>
		</layer>
		<layer id="94" name="__module.model.2.cv2.conv/aten::_convolution/Reshape" type="Convert" version="opset1">
			<data destination_type="f32" />
			<rt_info>
				<attribute name="decompression" version="0" />
			</rt_info>
			<input>
				<port id="0" precision="FP16">
					<dim>1</dim>
					<dim>64</dim>
					<dim>1</dim>
					<dim>1</dim>
				</port>
			</input>
			<output>
				<port id="1" precision="FP32">
					<dim>1</dim>
					<dim>64</dim>
					<dim>1</dim>
					<dim>1</dim>
				</port>
			</output>
		</layer>
		<layer id="95" name="__module.model.2.cv2.conv/aten::_convolution/Add" type="Add" version="opset1">
			<data auto_broadcast="numpy" />
			<input>
				<port id="0" precision="FP32">
					<dim>1</dim>
					<dim>64</dim>
					<dim>160</dim>
					<dim>160</dim>
				</port>
				<port id="1" precision="FP32">
					<dim>1</dim>
					<dim>64</dim>
					<dim>1</dim>
					<dim>1</dim>
				</port>
			</input>
			<output>
				<port id="2" precision="FP32" names="161_1">
					<dim>1</dim>
					<dim>64</dim>
					<dim>160</dim>
					<dim>160</dim>
				</port>
			</output>
		</layer>
		<layer id="96" name="__module.model.23.cv3.2.1.1.act/aten::silu_/Swish_5" type="Swish" version="opset4">
			<input>
				<port id="0" precision="FP32">
					<dim>1</dim>
					<dim>64</dim>
					<dim>160</dim>
					<dim>160</dim>
				</port>
			</input>
			<output>
				<port id="1" precision="FP32" names="161,input.21">
					<dim>1</dim>
					<dim>64</dim>
					<dim>160</dim>
					<dim>160</dim>
				</port>
			</output>
		</layer>
		<layer id="97" name="__module.model.23.cv3.2.1.1.act/aten::silu_/Swish_5/fq_output_0/Constant_25434" type="Const" version="opset1">
			<data element_type="f32" shape="" offset="46120" size="4" />
			<output>
				<port id="0" precision="FP32" />
			</output>
		</layer>
		<layer id="98" name="__module.model.23.cv3.2.1.1.act/aten::silu_/Swish_5/fq_output_0/Constant_25435" type="Const" version="opset1">
			<data element_type="f32" shape="" offset="46124" size="4" />
			<output>
				<port id="0" precision="FP32" />
			</output>
		</layer>
		<layer id="99" name="__module.model.23.cv3.2.1.1.act/aten::silu_/Swish_5/fq_output_0/Constant_25436" type="Const" version="opset1">
			<data element_type="f32" shape="" offset="46120" size="4" />
			<output>
				<port id="0" precision="FP32" />
			</output>
		</layer>
		<layer id="100" name="__module.model.23.cv3.2.1.1.act/aten::silu_/Swish_5/fq_output_0/Constant_25437" type="Const" version="opset1">
			<data element_type="f32" shape="" offset="46124" size="4" />
			<output>
				<port id="0" precision="FP32" />
			</output>
		</layer>
		<layer id="101" name="__module.model.23.cv3.2.1.1.act/aten::silu_/Swish_5/fq_output_0" type="FakeQuantize" version="opset1">
			<data levels="256" auto_broadcast="numpy" />
			<input>
				<port id="0" precision="FP32">
					<dim>1</dim>
					<dim>64</dim>
					<dim>160</dim>
					<dim>160</dim>
				</port>
				<port id="1" precision="FP32" />
				<port id="2" precision="FP32" />
				<port id="3" precision="FP32" />
				<port id="4" precision="FP32" />
			</input>
			<output>
				<port id="5" precision="FP32">
					<dim>1</dim>
					<dim>64</dim>
					<dim>160</dim>
					<dim>160</dim>
				</port>
			</output>
		</layer>
		<layer id="102" name="Constant_497696" type="Const" version="opset1">
			<data element_type="i8" shape="64, 64, 3, 3" offset="46128" size="36864" />
			<output>
				<port id="0" precision="I8">
					<dim>64</dim>
					<dim>64</dim>
					<dim>3</dim>
					<dim>3</dim>
				</port>
			</output>
		</layer>
		<layer id="103" name="Convert_497697" type="Convert" version="opset1">
			<data destination_type="f32" />
			<input>
				<port id="0" precision="I8">
					<dim>64</dim>
					<dim>64</dim>
					<dim>3</dim>
					<dim>3</dim>
				</port>
			</input>
			<output>
				<port id="1" precision="FP32">
					<dim>64</dim>
					<dim>64</dim>
					<dim>3</dim>
					<dim>3</dim>
				</port>
			</output>
		</layer>
		<layer id="104" name="Constant_497698" type="Const" version="opset1">
			<data element_type="f32" shape="64, 1, 1, 1" offset="82992" size="256" />
			<output>
				<port id="0" precision="FP32">
					<dim>64</dim>
					<dim>1</dim>
					<dim>1</dim>
					<dim>1</dim>
				</port>
			</output>
		</layer>
		<layer id="105" name="__module.model.3.conv/aten::_convolution/Convolution/fq_weights_1" type="Multiply" version="opset1">
			<data auto_broadcast="numpy" />
			<input>
				<port id="0" precision="FP32">
					<dim>64</dim>
					<dim>64</dim>
					<dim>3</dim>
					<dim>3</dim>
				</port>
				<port id="1" precision="FP32">
					<dim>64</dim>
					<dim>1</dim>
					<dim>1</dim>
					<dim>1</dim>
				</port>
			</input>
			<output>
				<port id="2" precision="FP32">
					<dim>64</dim>
					<dim>64</dim>
					<dim>3</dim>
					<dim>3</dim>
				</port>
			</output>
		</layer>
		<layer id="106" name="__module.model.3.conv/aten::_convolution/Convolution" type="Convolution" version="opset1">
			<data strides="2, 2" dilations="1, 1" pads_begin="1, 1" pads_end="1, 1" auto_pad="explicit" />
			<input>
				<port id="0" precision="FP32">
					<dim>1</dim>
					<dim>64</dim>
					<dim>160</dim>
					<dim>160</dim>
				</port>
				<port id="1" precision="FP32">
					<dim>64</dim>
					<dim>64</dim>
					<dim>3</dim>
					<dim>3</dim>
				</port>
			</input>
			<output>
				<port id="2" precision="FP32">
					<dim>1</dim>
					<dim>64</dim>
					<dim>80</dim>
					<dim>80</dim>
				</port>
			</output>
		</layer>
		<layer id="107" name="__module.model.3.conv/aten::_convolution/Reshape_compressed" type="Const" version="opset1">
			<data element_type="f16" shape="1, 64, 1, 1" offset="83248" size="128" />
			<output>
				<port id="0" precision="FP16">
					<dim>1</dim>
					<dim>64</dim>
					<dim>1</dim>
					<dim>1</dim>
				</port>
			</output>
		</layer>
		<layer id="108" name="__module.model.3.conv/aten::_convolution/Reshape" type="Convert" version="opset1">
			<data destination_type="f32" />
			<rt_info>
				<attribute name="decompression" version="0" />
			</rt_info>
			<input>
				<port id="0" precision="FP16">
					<dim>1</dim>
					<dim>64</dim>
					<dim>1</dim>
					<dim>1</dim>
				</port>
			</input>
			<output>
				<port id="1" precision="FP32">
					<dim>1</dim>
					<dim>64</dim>
					<dim>1</dim>
					<dim>1</dim>
				</port>
			</output>
		</layer>
		<layer id="109" name="__module.model.3.conv/aten::_convolution/Add" type="Add" version="opset1">
			<data auto_broadcast="numpy" />
			<input>
				<port id="0" precision="FP32">
					<dim>1</dim>
					<dim>64</dim>
					<dim>80</dim>
					<dim>80</dim>
				</port>
				<port id="1" precision="FP32">
					<dim>1</dim>
					<dim>64</dim>
					<dim>1</dim>
					<dim>1</dim>
				</port>
			</input>
			<output>
				<port id="2" precision="FP32" names="175_1">
					<dim>1</dim>
					<dim>64</dim>
					<dim>80</dim>
					<dim>80</dim>
				</port>
			</output>
		</layer>
		<layer id="110" name="__module.model.23.cv3.2.1.1.act/aten::silu_/Swish_6" type="Swish" version="opset4">
			<input>
				<port id="0" precision="FP32">
					<dim>1</dim>
					<dim>64</dim>
					<dim>80</dim>
					<dim>80</dim>
				</port>
			</input>
			<output>
				<port id="1" precision="FP32" names="175,input.25">
					<dim>1</dim>
					<dim>64</dim>
					<dim>80</dim>
					<dim>80</dim>
				</port>
			</output>
		</layer>
		<layer id="111" name="__module.model.23.cv3.2.1.1.act/aten::silu_/Swish_6/fq_output_0/Constant_25444" type="Const" version="opset1">
			<data element_type="f32" shape="" offset="83376" size="4" />
			<output>
				<port id="0" precision="FP32" />
			</output>
		</layer>
		<layer id="112" name="__module.model.23.cv3.2.1.1.act/aten::silu_/Swish_6/fq_output_0/Constant_25445" type="Const" version="opset1">
			<data element_type="f32" shape="" offset="83380" size="4" />
			<output>
				<port id="0" precision="FP32" />
			</output>
		</layer>
		<layer id="113" name="__module.model.23.cv3.2.1.1.act/aten::silu_/Swish_6/fq_output_0/Constant_25446" type="Const" version="opset1">
			<data element_type="f32" shape="" offset="83376" size="4" />
			<output>
				<port id="0" precision="FP32" />
			</output>
		</layer>
		<layer id="114" name="__module.model.23.cv3.2.1.1.act/aten::silu_/Swish_6/fq_output_0/Constant_25447" type="Const" version="opset1">
			<data element_type="f32" shape="" offset="83380" size="4" />
			<output>
				<port id="0" precision="FP32" />
			</output>
		</layer>
		<layer id="115" name="__module.model.23.cv3.2.1.1.act/aten::silu_/Swish_6/fq_output_0" type="FakeQuantize" version="opset1">
			<data levels="256" auto_broadcast="numpy" />
			<input>
				<port id="0" precision="FP32">
					<dim>1</dim>
					<dim>64</dim>
					<dim>80</dim>
					<dim>80</dim>
				</port>
				<port id="1" precision="FP32" />
				<port id="2" precision="FP32" />
				<port id="3" precision="FP32" />
				<port id="4" precision="FP32" />
			</input>
			<output>
				<port id="5" precision="FP32">
					<dim>1</dim>
					<dim>64</dim>
					<dim>80</dim>
					<dim>80</dim>
				</port>
			</output>
		</layer>
		<layer id="116" name="Constant_497701" type="Const" version="opset1">
			<data element_type="i8" shape="64, 64, 1, 1" offset="83384" size="4096" />
			<output>
				<port id="0" precision="I8">
					<dim>64</dim>
					<dim>64</dim>
					<dim>1</dim>
					<dim>1</dim>
				</port>
			</output>
		</layer>
		<layer id="117" name="Convert_497702" type="Convert" version="opset1">
			<data destination_type="f32" />
			<input>
				<port id="0" precision="I8">
					<dim>64</dim>
					<dim>64</dim>
					<dim>1</dim>
					<dim>1</dim>
				</port>
			</input>
			<output>
				<port id="1" precision="FP32">
					<dim>64</dim>
					<dim>64</dim>
					<dim>1</dim>
					<dim>1</dim>
				</port>
			</output>
		</layer>
		<layer id="118" name="Constant_497703" type="Const" version="opset1">
			<data element_type="f32" shape="64, 1, 1, 1" offset="87480" size="256" />
			<output>
				<port id="0" precision="FP32">
					<dim>64</dim>
					<dim>1</dim>
					<dim>1</dim>
					<dim>1</dim>
				</port>
			</output>
		</layer>
		<layer id="119" name="__module.model.4.cv1.conv/aten::_convolution/Convolution/fq_weights_1" type="Multiply" version="opset1">
			<data auto_broadcast="numpy" />
			<input>
				<port id="0" precision="FP32">
					<dim>64</dim>
					<dim>64</dim>
					<dim>1</dim>
					<dim>1</dim>
				</port>
				<port id="1" precision="FP32">
					<dim>64</dim>
					<dim>1</dim>
					<dim>1</dim>
					<dim>1</dim>
				</port>
			</input>
			<output>
				<port id="2" precision="FP32">
					<dim>64</dim>
					<dim>64</dim>
					<dim>1</dim>
					<dim>1</dim>
				</port>
			</output>
		</layer>
		<layer id="120" name="__module.model.4.cv1.conv/aten::_convolution/Convolution" type="Convolution" version="opset1">
			<data strides="1, 1" dilations="1, 1" pads_begin="0, 0" pads_end="0, 0" auto_pad="explicit" />
			<input>
				<port id="0" precision="FP32">
					<dim>1</dim>
					<dim>64</dim>
					<dim>80</dim>
					<dim>80</dim>
				</port>
				<port id="1" precision="FP32">
					<dim>64</dim>
					<dim>64</dim>
					<dim>1</dim>
					<dim>1</dim>
				</port>
			</input>
			<output>
				<port id="2" precision="FP32">
					<dim>1</dim>
					<dim>64</dim>
					<dim>80</dim>
					<dim>80</dim>
				</port>
			</output>
		</layer>
		<layer id="121" name="__module.model.4.cv1.conv/aten::_convolution/Reshape_compressed" type="Const" version="opset1">
			<data element_type="f16" shape="1, 64, 1, 1" offset="87736" size="128" />
			<output>
				<port id="0" precision="FP16">
					<dim>1</dim>
					<dim>64</dim>
					<dim>1</dim>
					<dim>1</dim>
				</port>
			</output>
		</layer>
		<layer id="122" name="__module.model.4.cv1.conv/aten::_convolution/Reshape" type="Convert" version="opset1">
			<data destination_type="f32" />
			<rt_info>
				<attribute name="decompression" version="0" />
			</rt_info>
			<input>
				<port id="0" precision="FP16">
					<dim>1</dim>
					<dim>64</dim>
					<dim>1</dim>
					<dim>1</dim>
				</port>
			</input>
			<output>
				<port id="1" precision="FP32">
					<dim>1</dim>
					<dim>64</dim>
					<dim>1</dim>
					<dim>1</dim>
				</port>
			</output>
		</layer>
		<layer id="123" name="__module.model.4.cv1.conv/aten::_convolution/Add" type="Add" version="opset1">
			<data auto_broadcast="numpy" />
			<input>
				<port id="0" precision="FP32">
					<dim>1</dim>
					<dim>64</dim>
					<dim>80</dim>
					<dim>80</dim>
				</port>
				<port id="1" precision="FP32">
					<dim>1</dim>
					<dim>64</dim>
					<dim>1</dim>
					<dim>1</dim>
				</port>
			</input>
			<output>
				<port id="2" precision="FP32" names="193_1">
					<dim>1</dim>
					<dim>64</dim>
					<dim>80</dim>
					<dim>80</dim>
				</port>
			</output>
		</layer>
		<layer id="124" name="__module.model.23.cv3.2.1.1.act/aten::silu_/Swish_7" type="Swish" version="opset4">
			<input>
				<port id="0" precision="FP32">
					<dim>1</dim>
					<dim>64</dim>
					<dim>80</dim>
					<dim>80</dim>
				</port>
			</input>
			<output>
				<port id="1" precision="FP32" names="193,input.29">
					<dim>1</dim>
					<dim>64</dim>
					<dim>80</dim>
					<dim>80</dim>
				</port>
			</output>
		</layer>
		<layer id="125" name="__module.model.23.cv3.2.1.1.act/aten::silu_/Swish_7/fq_output_0/Constant_25254" type="Const" version="opset1">
			<data element_type="f32" shape="" offset="87864" size="4" />
			<output>
				<port id="0" precision="FP32" />
			</output>
		</layer>
		<layer id="126" name="__module.model.23.cv3.2.1.1.act/aten::silu_/Swish_7/fq_output_0/Constant_25255" type="Const" version="opset1">
			<data element_type="f32" shape="" offset="87868" size="4" />
			<output>
				<port id="0" precision="FP32" />
			</output>
		</layer>
		<layer id="127" name="__module.model.23.cv3.2.1.1.act/aten::silu_/Swish_7/fq_output_0/Constant_25256" type="Const" version="opset1">
			<data element_type="f32" shape="" offset="87864" size="4" />
			<output>
				<port id="0" precision="FP32" />
			</output>
		</layer>
		<layer id="128" name="__module.model.23.cv3.2.1.1.act/aten::silu_/Swish_7/fq_output_0/Constant_25257" type="Const" version="opset1">
			<data element_type="f32" shape="" offset="87868" size="4" />
			<output>
				<port id="0" precision="FP32" />
			</output>
		</layer>
		<layer id="129" name="__module.model.23.cv3.2.1.1.act/aten::silu_/Swish_7/fq_output_0" type="FakeQuantize" version="opset1">
			<data levels="256" auto_broadcast="numpy" />
			<input>
				<port id="0" precision="FP32">
					<dim>1</dim>
					<dim>64</dim>
					<dim>80</dim>
					<dim>80</dim>
				</port>
				<port id="1" precision="FP32" />
				<port id="2" precision="FP32" />
				<port id="3" precision="FP32" />
				<port id="4" precision="FP32" />
			</input>
			<output>
				<port id="5" precision="FP32">
					<dim>1</dim>
					<dim>64</dim>
					<dim>80</dim>
					<dim>80</dim>
				</port>
			</output>
		</layer>
		<layer id="130" name="181" type="Const" version="opset1">
			<data element_type="i64" shape="" offset="40176" size="8" />
			<output>
				<port id="0" precision="I64" names="181" />
			</output>
		</layer>
		<layer id="131" name="Constant_474" type="Const" version="opset1">
			<data element_type="i64" shape="2" offset="87872" size="16" />
			<output>
				<port id="0" precision="I64" names="195">
					<dim>2</dim>
				</port>
			</output>
		</layer>
		<layer id="132" name="__module.model.4/prim::ListUnpack" type="VariadicSplit" version="opset1">
			<input>
				<port id="0" precision="FP32">
					<dim>1</dim>
					<dim>64</dim>
					<dim>80</dim>
					<dim>80</dim>
				</port>
				<port id="1" precision="I64" />
				<port id="2" precision="I64">
					<dim>2</dim>
				</port>
			</input>
			<output>
				<port id="3" precision="FP32" names="197">
					<dim>1</dim>
					<dim>32</dim>
					<dim>80</dim>
					<dim>80</dim>
				</port>
				<port id="4" precision="FP32" names="198,input.31">
					<dim>1</dim>
					<dim>32</dim>
					<dim>80</dim>
					<dim>80</dim>
				</port>
			</output>
		</layer>
		<layer id="133" name="Constant_497706" type="Const" version="opset1">
			<data element_type="i8" shape="16, 32, 3, 3" offset="87888" size="4608" />
			<output>
				<port id="0" precision="I8">
					<dim>16</dim>
					<dim>32</dim>
					<dim>3</dim>
					<dim>3</dim>
				</port>
			</output>
		</layer>
		<layer id="134" name="Convert_497707" type="Convert" version="opset1">
			<data destination_type="f32" />
			<input>
				<port id="0" precision="I8">
					<dim>16</dim>
					<dim>32</dim>
					<dim>3</dim>
					<dim>3</dim>
				</port>
			</input>
			<output>
				<port id="1" precision="FP32">
					<dim>16</dim>
					<dim>32</dim>
					<dim>3</dim>
					<dim>3</dim>
				</port>
			</output>
		</layer>
		<layer id="135" name="Constant_497708" type="Const" version="opset1">
			<data element_type="f32" shape="16, 1, 1, 1" offset="92496" size="64" />
			<output>
				<port id="0" precision="FP32">
					<dim>16</dim>
					<dim>1</dim>
					<dim>1</dim>
					<dim>1</dim>
				</port>
			</output>
		</layer>
		<layer id="136" name="__module.model.4.m.0.cv1.conv/aten::_convolution/Convolution/fq_weights_1" type="Multiply" version="opset1">
			<data auto_broadcast="numpy" />
			<input>
				<port id="0" precision="FP32">
					<dim>16</dim>
					<dim>32</dim>
					<dim>3</dim>
					<dim>3</dim>
				</port>
				<port id="1" precision="FP32">
					<dim>16</dim>
					<dim>1</dim>
					<dim>1</dim>
					<dim>1</dim>
				</port>
			</input>
			<output>
				<port id="2" precision="FP32">
					<dim>16</dim>
					<dim>32</dim>
					<dim>3</dim>
					<dim>3</dim>
				</port>
			</output>
		</layer>
		<layer id="137" name="__module.model.4.m.0.cv1.conv/aten::_convolution/Convolution" type="Convolution" version="opset1">
			<data strides="1, 1" dilations="1, 1" pads_begin="1, 1" pads_end="1, 1" auto_pad="explicit" />
			<input>
				<port id="0" precision="FP32">
					<dim>1</dim>
					<dim>32</dim>
					<dim>80</dim>
					<dim>80</dim>
				</port>
				<port id="1" precision="FP32">
					<dim>16</dim>
					<dim>32</dim>
					<dim>3</dim>
					<dim>3</dim>
				</port>
			</input>
			<output>
				<port id="2" precision="FP32">
					<dim>1</dim>
					<dim>16</dim>
					<dim>80</dim>
					<dim>80</dim>
				</port>
			</output>
		</layer>
		<layer id="138" name="__module.model.4.m.0.cv1.conv/aten::_convolution/Reshape_compressed" type="Const" version="opset1">
			<data element_type="f16" shape="1, 16, 1, 1" offset="92560" size="32" />
			<output>
				<port id="0" precision="FP16">
					<dim>1</dim>
					<dim>16</dim>
					<dim>1</dim>
					<dim>1</dim>
				</port>
			</output>
		</layer>
		<layer id="139" name="__module.model.4.m.0.cv1.conv/aten::_convolution/Reshape" type="Convert" version="opset1">
			<data destination_type="f32" />
			<rt_info>
				<attribute name="decompression" version="0" />
			</rt_info>
			<input>
				<port id="0" precision="FP16">
					<dim>1</dim>
					<dim>16</dim>
					<dim>1</dim>
					<dim>1</dim>
				</port>
			</input>
			<output>
				<port id="1" precision="FP32">
					<dim>1</dim>
					<dim>16</dim>
					<dim>1</dim>
					<dim>1</dim>
				</port>
			</output>
		</layer>
		<layer id="140" name="__module.model.4.m.0.cv1.conv/aten::_convolution/Add" type="Add" version="opset1">
			<data auto_broadcast="numpy" />
			<input>
				<port id="0" precision="FP32">
					<dim>1</dim>
					<dim>16</dim>
					<dim>80</dim>
					<dim>80</dim>
				</port>
				<port id="1" precision="FP32">
					<dim>1</dim>
					<dim>16</dim>
					<dim>1</dim>
					<dim>1</dim>
				</port>
			</input>
			<output>
				<port id="2" precision="FP32" names="208_1">
					<dim>1</dim>
					<dim>16</dim>
					<dim>80</dim>
					<dim>80</dim>
				</port>
			</output>
		</layer>
		<layer id="141" name="__module.model.23.cv3.2.1.1.act/aten::silu_/Swish_8" type="Swish" version="opset4">
			<input>
				<port id="0" precision="FP32">
					<dim>1</dim>
					<dim>16</dim>
					<dim>80</dim>
					<dim>80</dim>
				</port>
			</input>
			<output>
				<port id="1" precision="FP32" names="208,input.33">
					<dim>1</dim>
					<dim>16</dim>
					<dim>80</dim>
					<dim>80</dim>
				</port>
			</output>
		</layer>
		<layer id="142" name="__module.model.23.cv3.2.1.1.act/aten::silu_/Swish_8/fq_output_0/Constant_25459" type="Const" version="opset1">
			<data element_type="f32" shape="" offset="92592" size="4" />
			<output>
				<port id="0" precision="FP32" />
			</output>
		</layer>
		<layer id="143" name="__module.model.23.cv3.2.1.1.act/aten::silu_/Swish_8/fq_output_0/Constant_25460" type="Const" version="opset1">
			<data element_type="f32" shape="" offset="92596" size="4" />
			<output>
				<port id="0" precision="FP32" />
			</output>
		</layer>
		<layer id="144" name="__module.model.23.cv3.2.1.1.act/aten::silu_/Swish_8/fq_output_0/Constant_25461" type="Const" version="opset1">
			<data element_type="f32" shape="" offset="92592" size="4" />
			<output>
				<port id="0" precision="FP32" />
			</output>
		</layer>
		<layer id="145" name="__module.model.23.cv3.2.1.1.act/aten::silu_/Swish_8/fq_output_0/Constant_25462" type="Const" version="opset1">
			<data element_type="f32" shape="" offset="92596" size="4" />
			<output>
				<port id="0" precision="FP32" />
			</output>
		</layer>
		<layer id="146" name="__module.model.23.cv3.2.1.1.act/aten::silu_/Swish_8/fq_output_0" type="FakeQuantize" version="opset1">
			<data levels="256" auto_broadcast="numpy" />
			<input>
				<port id="0" precision="FP32">
					<dim>1</dim>
					<dim>16</dim>
					<dim>80</dim>
					<dim>80</dim>
				</port>
				<port id="1" precision="FP32" />
				<port id="2" precision="FP32" />
				<port id="3" precision="FP32" />
				<port id="4" precision="FP32" />
			</input>
			<output>
				<port id="5" precision="FP32">
					<dim>1</dim>
					<dim>16</dim>
					<dim>80</dim>
					<dim>80</dim>
				</port>
			</output>
		</layer>
		<layer id="147" name="Constant_497711" type="Const" version="opset1">
			<data element_type="i8" shape="32, 16, 3, 3" offset="92600" size="4608" />
			<output>
				<port id="0" precision="I8">
					<dim>32</dim>
					<dim>16</dim>
					<dim>3</dim>
					<dim>3</dim>
				</port>
			</output>
		</layer>
		<layer id="148" name="Convert_497712" type="Convert" version="opset1">
			<data destination_type="f32" />
			<input>
				<port id="0" precision="I8">
					<dim>32</dim>
					<dim>16</dim>
					<dim>3</dim>
					<dim>3</dim>
				</port>
			</input>
			<output>
				<port id="1" precision="FP32">
					<dim>32</dim>
					<dim>16</dim>
					<dim>3</dim>
					<dim>3</dim>
				</port>
			</output>
		</layer>
		<layer id="149" name="Constant_497713" type="Const" version="opset1">
			<data element_type="f32" shape="32, 1, 1, 1" offset="97208" size="128" />
			<output>
				<port id="0" precision="FP32">
					<dim>32</dim>
					<dim>1</dim>
					<dim>1</dim>
					<dim>1</dim>
				</port>
			</output>
		</layer>
		<layer id="150" name="__module.model.4.m.0.cv2.conv/aten::_convolution/Convolution/fq_weights_1" type="Multiply" version="opset1">
			<data auto_broadcast="numpy" />
			<input>
				<port id="0" precision="FP32">
					<dim>32</dim>
					<dim>16</dim>
					<dim>3</dim>
					<dim>3</dim>
				</port>
				<port id="1" precision="FP32">
					<dim>32</dim>
					<dim>1</dim>
					<dim>1</dim>
					<dim>1</dim>
				</port>
			</input>
			<output>
				<port id="2" precision="FP32">
					<dim>32</dim>
					<dim>16</dim>
					<dim>3</dim>
					<dim>3</dim>
				</port>
			</output>
		</layer>
		<layer id="151" name="__module.model.4.m.0.cv2.conv/aten::_convolution/Convolution" type="Convolution" version="opset1">
			<data strides="1, 1" dilations="1, 1" pads_begin="1, 1" pads_end="1, 1" auto_pad="explicit" />
			<input>
				<port id="0" precision="FP32">
					<dim>1</dim>
					<dim>16</dim>
					<dim>80</dim>
					<dim>80</dim>
				</port>
				<port id="1" precision="FP32">
					<dim>32</dim>
					<dim>16</dim>
					<dim>3</dim>
					<dim>3</dim>
				</port>
			</input>
			<output>
				<port id="2" precision="FP32">
					<dim>1</dim>
					<dim>32</dim>
					<dim>80</dim>
					<dim>80</dim>
				</port>
			</output>
		</layer>
		<layer id="152" name="__module.model.4.m.0.cv2.conv/aten::_convolution/Reshape_compressed" type="Const" version="opset1">
			<data element_type="f16" shape="1, 32, 1, 1" offset="97336" size="64" />
			<output>
				<port id="0" precision="FP16">
					<dim>1</dim>
					<dim>32</dim>
					<dim>1</dim>
					<dim>1</dim>
				</port>
			</output>
		</layer>
		<layer id="153" name="__module.model.4.m.0.cv2.conv/aten::_convolution/Reshape" type="Convert" version="opset1">
			<data destination_type="f32" />
			<rt_info>
				<attribute name="decompression" version="0" />
			</rt_info>
			<input>
				<port id="0" precision="FP16">
					<dim>1</dim>
					<dim>32</dim>
					<dim>1</dim>
					<dim>1</dim>
				</port>
			</input>
			<output>
				<port id="1" precision="FP32">
					<dim>1</dim>
					<dim>32</dim>
					<dim>1</dim>
					<dim>1</dim>
				</port>
			</output>
		</layer>
		<layer id="154" name="__module.model.4.m.0.cv2.conv/aten::_convolution/Add" type="Add" version="opset1">
			<data auto_broadcast="numpy" />
			<input>
				<port id="0" precision="FP32">
					<dim>1</dim>
					<dim>32</dim>
					<dim>80</dim>
					<dim>80</dim>
				</port>
				<port id="1" precision="FP32">
					<dim>1</dim>
					<dim>32</dim>
					<dim>1</dim>
					<dim>1</dim>
				</port>
			</input>
			<output>
				<port id="2" precision="FP32" names="217_1">
					<dim>1</dim>
					<dim>32</dim>
					<dim>80</dim>
					<dim>80</dim>
				</port>
			</output>
		</layer>
		<layer id="155" name="__module.model.23.cv3.2.1.1.act/aten::silu_/Swish_9" type="Swish" version="opset4">
			<input>
				<port id="0" precision="FP32">
					<dim>1</dim>
					<dim>32</dim>
					<dim>80</dim>
					<dim>80</dim>
				</port>
			</input>
			<output>
				<port id="1" precision="FP32" names="217,input.37">
					<dim>1</dim>
					<dim>32</dim>
					<dim>80</dim>
					<dim>80</dim>
				</port>
			</output>
		</layer>
		<layer id="156" name="__module.model.23.cv3.2.1.1.act/aten::silu_/Swish_9/fq_output_0/Constant_25469" type="Const" version="opset1">
			<data element_type="f32" shape="" offset="97400" size="4" />
			<output>
				<port id="0" precision="FP32" />
			</output>
		</layer>
		<layer id="157" name="__module.model.23.cv3.2.1.1.act/aten::silu_/Swish_9/fq_output_0/Constant_25470" type="Const" version="opset1">
			<data element_type="f32" shape="" offset="97404" size="4" />
			<output>
				<port id="0" precision="FP32" />
			</output>
		</layer>
		<layer id="158" name="__module.model.23.cv3.2.1.1.act/aten::silu_/Swish_9/fq_output_0/Constant_25471" type="Const" version="opset1">
			<data element_type="f32" shape="" offset="97400" size="4" />
			<output>
				<port id="0" precision="FP32" />
			</output>
		</layer>
		<layer id="159" name="__module.model.23.cv3.2.1.1.act/aten::silu_/Swish_9/fq_output_0/Constant_25472" type="Const" version="opset1">
			<data element_type="f32" shape="" offset="97404" size="4" />
			<output>
				<port id="0" precision="FP32" />
			</output>
		</layer>
		<layer id="160" name="__module.model.23.cv3.2.1.1.act/aten::silu_/Swish_9/fq_output_0" type="FakeQuantize" version="opset1">
			<data levels="256" auto_broadcast="numpy" />
			<input>
				<port id="0" precision="FP32">
					<dim>1</dim>
					<dim>32</dim>
					<dim>80</dim>
					<dim>80</dim>
				</port>
				<port id="1" precision="FP32" />
				<port id="2" precision="FP32" />
				<port id="3" precision="FP32" />
				<port id="4" precision="FP32" />
			</input>
			<output>
				<port id="5" precision="FP32">
					<dim>1</dim>
					<dim>32</dim>
					<dim>80</dim>
					<dim>80</dim>
				</port>
			</output>
		</layer>
		<layer id="161" name="__module.model.4.m.0/aten::add/Add" type="Add" version="opset1">
			<data auto_broadcast="numpy" />
			<input>
				<port id="0" precision="FP32">
					<dim>1</dim>
					<dim>32</dim>
					<dim>80</dim>
					<dim>80</dim>
				</port>
				<port id="1" precision="FP32">
					<dim>1</dim>
					<dim>32</dim>
					<dim>80</dim>
					<dim>80</dim>
				</port>
			</input>
			<output>
				<port id="2" precision="FP32" names="219">
					<dim>1</dim>
					<dim>32</dim>
					<dim>80</dim>
					<dim>80</dim>
				</port>
			</output>
		</layer>
		<layer id="162" name="__module.model.4.m.0/aten::add/Add/fq_output_0/Constant_25259" type="Const" version="opset1">
			<data element_type="f32" shape="" offset="87864" size="4" />
			<output>
				<port id="0" precision="FP32" />
			</output>
		</layer>
		<layer id="163" name="__module.model.4.m.0/aten::add/Add/fq_output_0/Constant_25260" type="Const" version="opset1">
			<data element_type="f32" shape="" offset="87868" size="4" />
			<output>
				<port id="0" precision="FP32" />
			</output>
		</layer>
		<layer id="164" name="__module.model.4.m.0/aten::add/Add/fq_output_0/Constant_25261" type="Const" version="opset1">
			<data element_type="f32" shape="" offset="87864" size="4" />
			<output>
				<port id="0" precision="FP32" />
			</output>
		</layer>
		<layer id="165" name="__module.model.4.m.0/aten::add/Add/fq_output_0/Constant_25262" type="Const" version="opset1">
			<data element_type="f32" shape="" offset="87868" size="4" />
			<output>
				<port id="0" precision="FP32" />
			</output>
		</layer>
		<layer id="166" name="__module.model.4.m.0/aten::add/Add/fq_output_0" type="FakeQuantize" version="opset1">
			<data levels="256" auto_broadcast="numpy" />
			<input>
				<port id="0" precision="FP32">
					<dim>1</dim>
					<dim>32</dim>
					<dim>80</dim>
					<dim>80</dim>
				</port>
				<port id="1" precision="FP32" />
				<port id="2" precision="FP32" />
				<port id="3" precision="FP32" />
				<port id="4" precision="FP32" />
			</input>
			<output>
				<port id="5" precision="FP32">
					<dim>1</dim>
					<dim>32</dim>
					<dim>80</dim>
					<dim>80</dim>
				</port>
			</output>
		</layer>
		<layer id="167" name="__module.model.4/aten::cat/Concat" type="Concat" version="opset1">
			<data axis="1" />
			<input>
				<port id="0" precision="FP32">
					<dim>1</dim>
					<dim>32</dim>
					<dim>80</dim>
					<dim>80</dim>
				</port>
				<port id="1" precision="FP32">
					<dim>1</dim>
					<dim>32</dim>
					<dim>80</dim>
					<dim>80</dim>
				</port>
				<port id="2" precision="FP32">
					<dim>1</dim>
					<dim>32</dim>
					<dim>80</dim>
					<dim>80</dim>
				</port>
			</input>
			<output>
				<port id="3" precision="FP32" names="221,input.39">
					<dim>1</dim>
					<dim>96</dim>
					<dim>80</dim>
					<dim>80</dim>
				</port>
			</output>
		</layer>
		<layer id="168" name="Constant_497716" type="Const" version="opset1">
			<data element_type="i8" shape="128, 96, 1, 1" offset="97408" size="12288" />
			<output>
				<port id="0" precision="I8">
					<dim>128</dim>
					<dim>96</dim>
					<dim>1</dim>
					<dim>1</dim>
				</port>
			</output>
		</layer>
		<layer id="169" name="Convert_497717" type="Convert" version="opset1">
			<data destination_type="f32" />
			<input>
				<port id="0" precision="I8">
					<dim>128</dim>
					<dim>96</dim>
					<dim>1</dim>
					<dim>1</dim>
				</port>
			</input>
			<output>
				<port id="1" precision="FP32">
					<dim>128</dim>
					<dim>96</dim>
					<dim>1</dim>
					<dim>1</dim>
				</port>
			</output>
		</layer>
		<layer id="170" name="Constant_497718" type="Const" version="opset1">
			<data element_type="f32" shape="128, 1, 1, 1" offset="109696" size="512" />
			<output>
				<port id="0" precision="FP32">
					<dim>128</dim>
					<dim>1</dim>
					<dim>1</dim>
					<dim>1</dim>
				</port>
			</output>
		</layer>
		<layer id="171" name="__module.model.4.cv2.conv/aten::_convolution/Convolution/fq_weights_1" type="Multiply" version="opset1">
			<data auto_broadcast="numpy" />
			<input>
				<port id="0" precision="FP32">
					<dim>128</dim>
					<dim>96</dim>
					<dim>1</dim>
					<dim>1</dim>
				</port>
				<port id="1" precision="FP32">
					<dim>128</dim>
					<dim>1</dim>
					<dim>1</dim>
					<dim>1</dim>
				</port>
			</input>
			<output>
				<port id="2" precision="FP32">
					<dim>128</dim>
					<dim>96</dim>
					<dim>1</dim>
					<dim>1</dim>
				</port>
			</output>
		</layer>
		<layer id="172" name="__module.model.4.cv2.conv/aten::_convolution/Convolution" type="Convolution" version="opset1">
			<data strides="1, 1" dilations="1, 1" pads_begin="0, 0" pads_end="0, 0" auto_pad="explicit" />
			<input>
				<port id="0" precision="FP32">
					<dim>1</dim>
					<dim>96</dim>
					<dim>80</dim>
					<dim>80</dim>
				</port>
				<port id="1" precision="FP32">
					<dim>128</dim>
					<dim>96</dim>
					<dim>1</dim>
					<dim>1</dim>
				</port>
			</input>
			<output>
				<port id="2" precision="FP32">
					<dim>1</dim>
					<dim>128</dim>
					<dim>80</dim>
					<dim>80</dim>
				</port>
			</output>
		</layer>
		<layer id="173" name="__module.model.4.cv2.conv/aten::_convolution/Reshape_compressed" type="Const" version="opset1">
			<data element_type="f16" shape="1, 128, 1, 1" offset="110208" size="256" />
			<output>
				<port id="0" precision="FP16">
					<dim>1</dim>
					<dim>128</dim>
					<dim>1</dim>
					<dim>1</dim>
				</port>
			</output>
		</layer>
		<layer id="174" name="__module.model.4.cv2.conv/aten::_convolution/Reshape" type="Convert" version="opset1">
			<data destination_type="f32" />
			<rt_info>
				<attribute name="decompression" version="0" />
			</rt_info>
			<input>
				<port id="0" precision="FP16">
					<dim>1</dim>
					<dim>128</dim>
					<dim>1</dim>
					<dim>1</dim>
				</port>
			</input>
			<output>
				<port id="1" precision="FP32">
					<dim>1</dim>
					<dim>128</dim>
					<dim>1</dim>
					<dim>1</dim>
				</port>
			</output>
		</layer>
		<layer id="175" name="__module.model.4.cv2.conv/aten::_convolution/Add" type="Add" version="opset1">
			<data auto_broadcast="numpy" />
			<input>
				<port id="0" precision="FP32">
					<dim>1</dim>
					<dim>128</dim>
					<dim>80</dim>
					<dim>80</dim>
				</port>
				<port id="1" precision="FP32">
					<dim>1</dim>
					<dim>128</dim>
					<dim>1</dim>
					<dim>1</dim>
				</port>
			</input>
			<output>
				<port id="2" precision="FP32" names="229_1">
					<dim>1</dim>
					<dim>128</dim>
					<dim>80</dim>
					<dim>80</dim>
				</port>
			</output>
		</layer>
		<layer id="176" name="__module.model.23.cv3.2.1.1.act/aten::silu_/Swish_10" type="Swish" version="opset4">
			<input>
				<port id="0" precision="FP32">
					<dim>1</dim>
					<dim>128</dim>
					<dim>80</dim>
					<dim>80</dim>
				</port>
			</input>
			<output>
				<port id="1" precision="FP32" names="229,input.41">
					<dim>1</dim>
					<dim>128</dim>
					<dim>80</dim>
					<dim>80</dim>
				</port>
			</output>
		</layer>
		<layer id="177" name="__module.model.23.cv3.2.1.1.act/aten::silu_/Swish_10/fq_output_0/Constant_25269" type="Const" version="opset1">
			<data element_type="f32" shape="" offset="110464" size="4" />
			<output>
				<port id="0" precision="FP32" />
			</output>
		</layer>
		<layer id="178" name="__module.model.23.cv3.2.1.1.act/aten::silu_/Swish_10/fq_output_0/Constant_25270" type="Const" version="opset1">
			<data element_type="f32" shape="" offset="110468" size="4" />
			<output>
				<port id="0" precision="FP32" />
			</output>
		</layer>
		<layer id="179" name="__module.model.23.cv3.2.1.1.act/aten::silu_/Swish_10/fq_output_0/Constant_25271" type="Const" version="opset1">
			<data element_type="f32" shape="" offset="110464" size="4" />
			<output>
				<port id="0" precision="FP32" />
			</output>
		</layer>
		<layer id="180" name="__module.model.23.cv3.2.1.1.act/aten::silu_/Swish_10/fq_output_0/Constant_25272" type="Const" version="opset1">
			<data element_type="f32" shape="" offset="110468" size="4" />
			<output>
				<port id="0" precision="FP32" />
			</output>
		</layer>
		<layer id="181" name="__module.model.23.cv3.2.1.1.act/aten::silu_/Swish_10/fq_output_0" type="FakeQuantize" version="opset1">
			<data levels="256" auto_broadcast="numpy" />
			<input>
				<port id="0" precision="FP32">
					<dim>1</dim>
					<dim>128</dim>
					<dim>80</dim>
					<dim>80</dim>
				</port>
				<port id="1" precision="FP32" />
				<port id="2" precision="FP32" />
				<port id="3" precision="FP32" />
				<port id="4" precision="FP32" />
			</input>
			<output>
				<port id="5" precision="FP32">
					<dim>1</dim>
					<dim>128</dim>
					<dim>80</dim>
					<dim>80</dim>
				</port>
			</output>
		</layer>
		<layer id="182" name="Constant_497721" type="Const" version="opset1">
			<data element_type="i8" shape="128, 128, 3, 3" offset="110472" size="147456" />
			<output>
				<port id="0" precision="I8">
					<dim>128</dim>
					<dim>128</dim>
					<dim>3</dim>
					<dim>3</dim>
				</port>
			</output>
		</layer>
		<layer id="183" name="Convert_497722" type="Convert" version="opset1">
			<data destination_type="f32" />
			<input>
				<port id="0" precision="I8">
					<dim>128</dim>
					<dim>128</dim>
					<dim>3</dim>
					<dim>3</dim>
				</port>
			</input>
			<output>
				<port id="1" precision="FP32">
					<dim>128</dim>
					<dim>128</dim>
					<dim>3</dim>
					<dim>3</dim>
				</port>
			</output>
		</layer>
		<layer id="184" name="Constant_497723" type="Const" version="opset1">
			<data element_type="f32" shape="128, 1, 1, 1" offset="257928" size="512" />
			<output>
				<port id="0" precision="FP32">
					<dim>128</dim>
					<dim>1</dim>
					<dim>1</dim>
					<dim>1</dim>
				</port>
			</output>
		</layer>
		<layer id="185" name="__module.model.5.conv/aten::_convolution/Convolution/fq_weights_1" type="Multiply" version="opset1">
			<data auto_broadcast="numpy" />
			<input>
				<port id="0" precision="FP32">
					<dim>128</dim>
					<dim>128</dim>
					<dim>3</dim>
					<dim>3</dim>
				</port>
				<port id="1" precision="FP32">
					<dim>128</dim>
					<dim>1</dim>
					<dim>1</dim>
					<dim>1</dim>
				</port>
			</input>
			<output>
				<port id="2" precision="FP32">
					<dim>128</dim>
					<dim>128</dim>
					<dim>3</dim>
					<dim>3</dim>
				</port>
			</output>
		</layer>
		<layer id="186" name="__module.model.5.conv/aten::_convolution/Convolution" type="Convolution" version="opset1">
			<data strides="2, 2" dilations="1, 1" pads_begin="1, 1" pads_end="1, 1" auto_pad="explicit" />
			<input>
				<port id="0" precision="FP32">
					<dim>1</dim>
					<dim>128</dim>
					<dim>80</dim>
					<dim>80</dim>
				</port>
				<port id="1" precision="FP32">
					<dim>128</dim>
					<dim>128</dim>
					<dim>3</dim>
					<dim>3</dim>
				</port>
			</input>
			<output>
				<port id="2" precision="FP32">
					<dim>1</dim>
					<dim>128</dim>
					<dim>40</dim>
					<dim>40</dim>
				</port>
			</output>
		</layer>
		<layer id="187" name="__module.model.5.conv/aten::_convolution/Reshape_compressed" type="Const" version="opset1">
			<data element_type="f16" shape="1, 128, 1, 1" offset="258440" size="256" />
			<output>
				<port id="0" precision="FP16">
					<dim>1</dim>
					<dim>128</dim>
					<dim>1</dim>
					<dim>1</dim>
				</port>
			</output>
		</layer>
		<layer id="188" name="__module.model.5.conv/aten::_convolution/Reshape" type="Convert" version="opset1">
			<data destination_type="f32" />
			<rt_info>
				<attribute name="decompression" version="0" />
			</rt_info>
			<input>
				<port id="0" precision="FP16">
					<dim>1</dim>
					<dim>128</dim>
					<dim>1</dim>
					<dim>1</dim>
				</port>
			</input>
			<output>
				<port id="1" precision="FP32">
					<dim>1</dim>
					<dim>128</dim>
					<dim>1</dim>
					<dim>1</dim>
				</port>
			</output>
		</layer>
		<layer id="189" name="__module.model.5.conv/aten::_convolution/Add" type="Add" version="opset1">
			<data auto_broadcast="numpy" />
			<input>
				<port id="0" precision="FP32">
					<dim>1</dim>
					<dim>128</dim>
					<dim>40</dim>
					<dim>40</dim>
				</port>
				<port id="1" precision="FP32">
					<dim>1</dim>
					<dim>128</dim>
					<dim>1</dim>
					<dim>1</dim>
				</port>
			</input>
			<output>
				<port id="2" precision="FP32" names="243_1">
					<dim>1</dim>
					<dim>128</dim>
					<dim>40</dim>
					<dim>40</dim>
				</port>
			</output>
		</layer>
		<layer id="190" name="__module.model.23.cv3.2.1.1.act/aten::silu_/Swish_11" type="Swish" version="opset4">
			<input>
				<port id="0" precision="FP32">
					<dim>1</dim>
					<dim>128</dim>
					<dim>40</dim>
					<dim>40</dim>
				</port>
			</input>
			<output>
				<port id="1" precision="FP32" names="243,input.45">
					<dim>1</dim>
					<dim>128</dim>
					<dim>40</dim>
					<dim>40</dim>
				</port>
			</output>
		</layer>
		<layer id="191" name="__module.model.23.cv3.2.1.1.act/aten::silu_/Swish_11/fq_output_0/Constant_25484" type="Const" version="opset1">
			<data element_type="f32" shape="" offset="258696" size="4" />
			<output>
				<port id="0" precision="FP32" />
			</output>
		</layer>
		<layer id="192" name="__module.model.23.cv3.2.1.1.act/aten::silu_/Swish_11/fq_output_0/Constant_25485" type="Const" version="opset1">
			<data element_type="f32" shape="" offset="258700" size="4" />
			<output>
				<port id="0" precision="FP32" />
			</output>
		</layer>
		<layer id="193" name="__module.model.23.cv3.2.1.1.act/aten::silu_/Swish_11/fq_output_0/Constant_25486" type="Const" version="opset1">
			<data element_type="f32" shape="" offset="258696" size="4" />
			<output>
				<port id="0" precision="FP32" />
			</output>
		</layer>
		<layer id="194" name="__module.model.23.cv3.2.1.1.act/aten::silu_/Swish_11/fq_output_0/Constant_25487" type="Const" version="opset1">
			<data element_type="f32" shape="" offset="258700" size="4" />
			<output>
				<port id="0" precision="FP32" />
			</output>
		</layer>
		<layer id="195" name="__module.model.23.cv3.2.1.1.act/aten::silu_/Swish_11/fq_output_0" type="FakeQuantize" version="opset1">
			<data levels="256" auto_broadcast="numpy" />
			<input>
				<port id="0" precision="FP32">
					<dim>1</dim>
					<dim>128</dim>
					<dim>40</dim>
					<dim>40</dim>
				</port>
				<port id="1" precision="FP32" />
				<port id="2" precision="FP32" />
				<port id="3" precision="FP32" />
				<port id="4" precision="FP32" />
			</input>
			<output>
				<port id="5" precision="FP32">
					<dim>1</dim>
					<dim>128</dim>
					<dim>40</dim>
					<dim>40</dim>
				</port>
			</output>
		</layer>
		<layer id="196" name="Constant_497726" type="Const" version="opset1">
			<data element_type="i8" shape="128, 128, 1, 1" offset="258704" size="16384" />
			<output>
				<port id="0" precision="I8">
					<dim>128</dim>
					<dim>128</dim>
					<dim>1</dim>
					<dim>1</dim>
				</port>
			</output>
		</layer>
		<layer id="197" name="Convert_497727" type="Convert" version="opset1">
			<data destination_type="f32" />
			<input>
				<port id="0" precision="I8">
					<dim>128</dim>
					<dim>128</dim>
					<dim>1</dim>
					<dim>1</dim>
				</port>
			</input>
			<output>
				<port id="1" precision="FP32">
					<dim>128</dim>
					<dim>128</dim>
					<dim>1</dim>
					<dim>1</dim>
				</port>
			</output>
		</layer>
		<layer id="198" name="Constant_497728" type="Const" version="opset1">
			<data element_type="f32" shape="128, 1, 1, 1" offset="275088" size="512" />
			<output>
				<port id="0" precision="FP32">
					<dim>128</dim>
					<dim>1</dim>
					<dim>1</dim>
					<dim>1</dim>
				</port>
			</output>
		</layer>
		<layer id="199" name="__module.model.6.cv1.conv/aten::_convolution/Convolution/fq_weights_1" type="Multiply" version="opset1">
			<data auto_broadcast="numpy" />
			<input>
				<port id="0" precision="FP32">
					<dim>128</dim>
					<dim>128</dim>
					<dim>1</dim>
					<dim>1</dim>
				</port>
				<port id="1" precision="FP32">
					<dim>128</dim>
					<dim>1</dim>
					<dim>1</dim>
					<dim>1</dim>
				</port>
			</input>
			<output>
				<port id="2" precision="FP32">
					<dim>128</dim>
					<dim>128</dim>
					<dim>1</dim>
					<dim>1</dim>
				</port>
			</output>
		</layer>
		<layer id="200" name="__module.model.6.cv1.conv/aten::_convolution/Convolution" type="Convolution" version="opset1">
			<data strides="1, 1" dilations="1, 1" pads_begin="0, 0" pads_end="0, 0" auto_pad="explicit" />
			<input>
				<port id="0" precision="FP32">
					<dim>1</dim>
					<dim>128</dim>
					<dim>40</dim>
					<dim>40</dim>
				</port>
				<port id="1" precision="FP32">
					<dim>128</dim>
					<dim>128</dim>
					<dim>1</dim>
					<dim>1</dim>
				</port>
			</input>
			<output>
				<port id="2" precision="FP32">
					<dim>1</dim>
					<dim>128</dim>
					<dim>40</dim>
					<dim>40</dim>
				</port>
			</output>
		</layer>
		<layer id="201" name="__module.model.6.cv1.conv/aten::_convolution/Reshape_compressed" type="Const" version="opset1">
			<data element_type="f16" shape="1, 128, 1, 1" offset="275600" size="256" />
			<output>
				<port id="0" precision="FP16">
					<dim>1</dim>
					<dim>128</dim>
					<dim>1</dim>
					<dim>1</dim>
				</port>
			</output>
		</layer>
		<layer id="202" name="__module.model.6.cv1.conv/aten::_convolution/Reshape" type="Convert" version="opset1">
			<data destination_type="f32" />
			<rt_info>
				<attribute name="decompression" version="0" />
			</rt_info>
			<input>
				<port id="0" precision="FP16">
					<dim>1</dim>
					<dim>128</dim>
					<dim>1</dim>
					<dim>1</dim>
				</port>
			</input>
			<output>
				<port id="1" precision="FP32">
					<dim>1</dim>
					<dim>128</dim>
					<dim>1</dim>
					<dim>1</dim>
				</port>
			</output>
		</layer>
		<layer id="203" name="__module.model.6.cv1.conv/aten::_convolution/Add" type="Add" version="opset1">
			<data auto_broadcast="numpy" />
			<input>
				<port id="0" precision="FP32">
					<dim>1</dim>
					<dim>128</dim>
					<dim>40</dim>
					<dim>40</dim>
				</port>
				<port id="1" precision="FP32">
					<dim>1</dim>
					<dim>128</dim>
					<dim>1</dim>
					<dim>1</dim>
				</port>
			</input>
			<output>
				<port id="2" precision="FP32" names="261_1">
					<dim>1</dim>
					<dim>128</dim>
					<dim>40</dim>
					<dim>40</dim>
				</port>
			</output>
		</layer>
		<layer id="204" name="__module.model.23.cv3.2.1.1.act/aten::silu_/Swish_12" type="Swish" version="opset4">
			<input>
				<port id="0" precision="FP32">
					<dim>1</dim>
					<dim>128</dim>
					<dim>40</dim>
					<dim>40</dim>
				</port>
			</input>
			<output>
				<port id="1" precision="FP32" names="261,input.49">
					<dim>1</dim>
					<dim>128</dim>
					<dim>40</dim>
					<dim>40</dim>
				</port>
			</output>
		</layer>
		<layer id="205" name="__module.model.23.cv3.2.1.1.act/aten::silu_/Swish_12/fq_output_0/Constant_25279" type="Const" version="opset1">
			<data element_type="f32" shape="" offset="275856" size="4" />
			<output>
				<port id="0" precision="FP32" />
			</output>
		</layer>
		<layer id="206" name="__module.model.23.cv3.2.1.1.act/aten::silu_/Swish_12/fq_output_0/Constant_25280" type="Const" version="opset1">
			<data element_type="f32" shape="" offset="275860" size="4" />
			<output>
				<port id="0" precision="FP32" />
			</output>
		</layer>
		<layer id="207" name="__module.model.23.cv3.2.1.1.act/aten::silu_/Swish_12/fq_output_0/Constant_25281" type="Const" version="opset1">
			<data element_type="f32" shape="" offset="275856" size="4" />
			<output>
				<port id="0" precision="FP32" />
			</output>
		</layer>
		<layer id="208" name="__module.model.23.cv3.2.1.1.act/aten::silu_/Swish_12/fq_output_0/Constant_25282" type="Const" version="opset1">
			<data element_type="f32" shape="" offset="275860" size="4" />
			<output>
				<port id="0" precision="FP32" />
			</output>
		</layer>
		<layer id="209" name="__module.model.23.cv3.2.1.1.act/aten::silu_/Swish_12/fq_output_0" type="FakeQuantize" version="opset1">
			<data levels="256" auto_broadcast="numpy" />
			<input>
				<port id="0" precision="FP32">
					<dim>1</dim>
					<dim>128</dim>
					<dim>40</dim>
					<dim>40</dim>
				</port>
				<port id="1" precision="FP32" />
				<port id="2" precision="FP32" />
				<port id="3" precision="FP32" />
				<port id="4" precision="FP32" />
			</input>
			<output>
				<port id="5" precision="FP32">
					<dim>1</dim>
					<dim>128</dim>
					<dim>40</dim>
					<dim>40</dim>
				</port>
			</output>
		</layer>
		<layer id="210" name="249" type="Const" version="opset1">
			<data element_type="i64" shape="" offset="40176" size="8" />
			<output>
				<port id="0" precision="I64" names="249" />
			</output>
		</layer>
		<layer id="211" name="Constant_732" type="Const" version="opset1">
			<data element_type="i64" shape="2" offset="275864" size="16" />
			<output>
				<port id="0" precision="I64" names="263">
					<dim>2</dim>
				</port>
			</output>
		</layer>
		<layer id="212" name="__module.model.6/prim::ListUnpack" type="VariadicSplit" version="opset1">
			<input>
				<port id="0" precision="FP32">
					<dim>1</dim>
					<dim>128</dim>
					<dim>40</dim>
					<dim>40</dim>
				</port>
				<port id="1" precision="I64" />
				<port id="2" precision="I64">
					<dim>2</dim>
				</port>
			</input>
			<output>
				<port id="3" precision="FP32" names="265">
					<dim>1</dim>
					<dim>64</dim>
					<dim>40</dim>
					<dim>40</dim>
				</port>
				<port id="4" precision="FP32" names="266,input.51">
					<dim>1</dim>
					<dim>64</dim>
					<dim>40</dim>
					<dim>40</dim>
				</port>
			</output>
		</layer>
		<layer id="213" name="Constant_497731" type="Const" version="opset1">
			<data element_type="i8" shape="32, 64, 1, 1" offset="275880" size="2048" />
			<output>
				<port id="0" precision="I8">
					<dim>32</dim>
					<dim>64</dim>
					<dim>1</dim>
					<dim>1</dim>
				</port>
			</output>
		</layer>
		<layer id="214" name="Convert_497732" type="Convert" version="opset1">
			<data destination_type="f32" />
			<input>
				<port id="0" precision="I8">
					<dim>32</dim>
					<dim>64</dim>
					<dim>1</dim>
					<dim>1</dim>
				</port>
			</input>
			<output>
				<port id="1" precision="FP32">
					<dim>32</dim>
					<dim>64</dim>
					<dim>1</dim>
					<dim>1</dim>
				</port>
			</output>
		</layer>
		<layer id="215" name="Constant_497733" type="Const" version="opset1">
			<data element_type="f32" shape="32, 1, 1, 1" offset="277928" size="128" />
			<output>
				<port id="0" precision="FP32">
					<dim>32</dim>
					<dim>1</dim>
					<dim>1</dim>
					<dim>1</dim>
				</port>
			</output>
		</layer>
		<layer id="216" name="__module.model.6.m.0.cv1.conv/aten::_convolution/Convolution/fq_weights_1" type="Multiply" version="opset1">
			<data auto_broadcast="numpy" />
			<input>
				<port id="0" precision="FP32">
					<dim>32</dim>
					<dim>64</dim>
					<dim>1</dim>
					<dim>1</dim>
				</port>
				<port id="1" precision="FP32">
					<dim>32</dim>
					<dim>1</dim>
					<dim>1</dim>
					<dim>1</dim>
				</port>
			</input>
			<output>
				<port id="2" precision="FP32">
					<dim>32</dim>
					<dim>64</dim>
					<dim>1</dim>
					<dim>1</dim>
				</port>
			</output>
		</layer>
		<layer id="217" name="__module.model.6.m.0.cv1.conv/aten::_convolution/Convolution" type="Convolution" version="opset1">
			<data strides="1, 1" dilations="1, 1" pads_begin="0, 0" pads_end="0, 0" auto_pad="explicit" />
			<input>
				<port id="0" precision="FP32">
					<dim>1</dim>
					<dim>64</dim>
					<dim>40</dim>
					<dim>40</dim>
				</port>
				<port id="1" precision="FP32">
					<dim>32</dim>
					<dim>64</dim>
					<dim>1</dim>
					<dim>1</dim>
				</port>
			</input>
			<output>
				<port id="2" precision="FP32">
					<dim>1</dim>
					<dim>32</dim>
					<dim>40</dim>
					<dim>40</dim>
				</port>
			</output>
		</layer>
		<layer id="218" name="__module.model.6.m.0.cv1.conv/aten::_convolution/Reshape_compressed" type="Const" version="opset1">
			<data element_type="f16" shape="1, 32, 1, 1" offset="278056" size="64" />
			<output>
				<port id="0" precision="FP16">
					<dim>1</dim>
					<dim>32</dim>
					<dim>1</dim>
					<dim>1</dim>
				</port>
			</output>
		</layer>
		<layer id="219" name="__module.model.6.m.0.cv1.conv/aten::_convolution/Reshape" type="Convert" version="opset1">
			<data destination_type="f32" />
			<rt_info>
				<attribute name="decompression" version="0" />
			</rt_info>
			<input>
				<port id="0" precision="FP16">
					<dim>1</dim>
					<dim>32</dim>
					<dim>1</dim>
					<dim>1</dim>
				</port>
			</input>
			<output>
				<port id="1" precision="FP32">
					<dim>1</dim>
					<dim>32</dim>
					<dim>1</dim>
					<dim>1</dim>
				</port>
			</output>
		</layer>
		<layer id="220" name="__module.model.6.m.0.cv1.conv/aten::_convolution/Add" type="Add" version="opset1">
			<data auto_broadcast="numpy" />
			<input>
				<port id="0" precision="FP32">
					<dim>1</dim>
					<dim>32</dim>
					<dim>40</dim>
					<dim>40</dim>
				</port>
				<port id="1" precision="FP32">
					<dim>1</dim>
					<dim>32</dim>
					<dim>1</dim>
					<dim>1</dim>
				</port>
			</input>
			<output>
				<port id="2" precision="FP32" names="278_1">
					<dim>1</dim>
					<dim>32</dim>
					<dim>40</dim>
					<dim>40</dim>
				</port>
			</output>
		</layer>
		<layer id="221" name="__module.model.23.cv3.2.1.1.act/aten::silu_/Swish_13" type="Swish" version="opset4">
			<input>
				<port id="0" precision="FP32">
					<dim>1</dim>
					<dim>32</dim>
					<dim>40</dim>
					<dim>40</dim>
				</port>
			</input>
			<output>
				<port id="1" precision="FP32" names="278,input.53">
					<dim>1</dim>
					<dim>32</dim>
					<dim>40</dim>
					<dim>40</dim>
				</port>
			</output>
		</layer>
		<layer id="222" name="__module.model.23.cv3.2.1.1.act/aten::silu_/Swish_13/fq_output_0/Constant_25504" type="Const" version="opset1">
			<data element_type="f32" shape="" offset="278120" size="4" />
			<output>
				<port id="0" precision="FP32" />
			</output>
		</layer>
		<layer id="223" name="__module.model.23.cv3.2.1.1.act/aten::silu_/Swish_13/fq_output_0/Constant_25505" type="Const" version="opset1">
			<data element_type="f32" shape="" offset="278124" size="4" />
			<output>
				<port id="0" precision="FP32" />
			</output>
		</layer>
		<layer id="224" name="__module.model.23.cv3.2.1.1.act/aten::silu_/Swish_13/fq_output_0/Constant_25506" type="Const" version="opset1">
			<data element_type="f32" shape="" offset="278120" size="4" />
			<output>
				<port id="0" precision="FP32" />
			</output>
		</layer>
		<layer id="225" name="__module.model.23.cv3.2.1.1.act/aten::silu_/Swish_13/fq_output_0/Constant_25507" type="Const" version="opset1">
			<data element_type="f32" shape="" offset="278124" size="4" />
			<output>
				<port id="0" precision="FP32" />
			</output>
		</layer>
		<layer id="226" name="__module.model.23.cv3.2.1.1.act/aten::silu_/Swish_13/fq_output_0" type="FakeQuantize" version="opset1">
			<data levels="256" auto_broadcast="numpy" />
			<input>
				<port id="0" precision="FP32">
					<dim>1</dim>
					<dim>32</dim>
					<dim>40</dim>
					<dim>40</dim>
				</port>
				<port id="1" precision="FP32" />
				<port id="2" precision="FP32" />
				<port id="3" precision="FP32" />
				<port id="4" precision="FP32" />
			</input>
			<output>
				<port id="5" precision="FP32">
					<dim>1</dim>
					<dim>32</dim>
					<dim>40</dim>
					<dim>40</dim>
				</port>
			</output>
		</layer>
		<layer id="227" name="Constant_497736" type="Const" version="opset1">
			<data element_type="i8" shape="32, 32, 3, 3" offset="278128" size="9216" />
			<output>
				<port id="0" precision="I8">
					<dim>32</dim>
					<dim>32</dim>
					<dim>3</dim>
					<dim>3</dim>
				</port>
			</output>
		</layer>
		<layer id="228" name="Convert_497737" type="Convert" version="opset1">
			<data destination_type="f32" />
			<input>
				<port id="0" precision="I8">
					<dim>32</dim>
					<dim>32</dim>
					<dim>3</dim>
					<dim>3</dim>
				</port>
			</input>
			<output>
				<port id="1" precision="FP32">
					<dim>32</dim>
					<dim>32</dim>
					<dim>3</dim>
					<dim>3</dim>
				</port>
			</output>
		</layer>
		<layer id="229" name="Constant_497738" type="Const" version="opset1">
			<data element_type="f32" shape="32, 1, 1, 1" offset="287344" size="128" />
			<output>
				<port id="0" precision="FP32">
					<dim>32</dim>
					<dim>1</dim>
					<dim>1</dim>
					<dim>1</dim>
				</port>
			</output>
		</layer>
		<layer id="230" name="__module.model.6.m.0.m.0.cv1.conv/aten::_convolution/Convolution/fq_weights_1" type="Multiply" version="opset1">
			<data auto_broadcast="numpy" />
			<input>
				<port id="0" precision="FP32">
					<dim>32</dim>
					<dim>32</dim>
					<dim>3</dim>
					<dim>3</dim>
				</port>
				<port id="1" precision="FP32">
					<dim>32</dim>
					<dim>1</dim>
					<dim>1</dim>
					<dim>1</dim>
				</port>
			</input>
			<output>
				<port id="2" precision="FP32">
					<dim>32</dim>
					<dim>32</dim>
					<dim>3</dim>
					<dim>3</dim>
				</port>
			</output>
		</layer>
		<layer id="231" name="__module.model.6.m.0.m.0.cv1.conv/aten::_convolution/Convolution" type="Convolution" version="opset1">
			<data strides="1, 1" dilations="1, 1" pads_begin="1, 1" pads_end="1, 1" auto_pad="explicit" />
			<input>
				<port id="0" precision="FP32">
					<dim>1</dim>
					<dim>32</dim>
					<dim>40</dim>
					<dim>40</dim>
				</port>
				<port id="1" precision="FP32">
					<dim>32</dim>
					<dim>32</dim>
					<dim>3</dim>
					<dim>3</dim>
				</port>
			</input>
			<output>
				<port id="2" precision="FP32">
					<dim>1</dim>
					<dim>32</dim>
					<dim>40</dim>
					<dim>40</dim>
				</port>
			</output>
		</layer>
		<layer id="232" name="__module.model.6.m.0.m.0.cv1.conv/aten::_convolution/Reshape_compressed" type="Const" version="opset1">
			<data element_type="f16" shape="1, 32, 1, 1" offset="287472" size="64" />
			<output>
				<port id="0" precision="FP16">
					<dim>1</dim>
					<dim>32</dim>
					<dim>1</dim>
					<dim>1</dim>
				</port>
			</output>
		</layer>
		<layer id="233" name="__module.model.6.m.0.m.0.cv1.conv/aten::_convolution/Reshape" type="Convert" version="opset1">
			<data destination_type="f32" />
			<rt_info>
				<attribute name="decompression" version="0" />
			</rt_info>
			<input>
				<port id="0" precision="FP16">
					<dim>1</dim>
					<dim>32</dim>
					<dim>1</dim>
					<dim>1</dim>
				</port>
			</input>
			<output>
				<port id="1" precision="FP32">
					<dim>1</dim>
					<dim>32</dim>
					<dim>1</dim>
					<dim>1</dim>
				</port>
			</output>
		</layer>
		<layer id="234" name="__module.model.6.m.0.m.0.cv1.conv/aten::_convolution/Add" type="Add" version="opset1">
			<data auto_broadcast="numpy" />
			<input>
				<port id="0" precision="FP32">
					<dim>1</dim>
					<dim>32</dim>
					<dim>40</dim>
					<dim>40</dim>
				</port>
				<port id="1" precision="FP32">
					<dim>1</dim>
					<dim>32</dim>
					<dim>1</dim>
					<dim>1</dim>
				</port>
			</input>
			<output>
				<port id="2" precision="FP32" names="291_1">
					<dim>1</dim>
					<dim>32</dim>
					<dim>40</dim>
					<dim>40</dim>
				</port>
			</output>
		</layer>
		<layer id="235" name="__module.model.23.cv3.2.1.1.act/aten::silu_/Swish_14" type="Swish" version="opset4">
			<input>
				<port id="0" precision="FP32">
					<dim>1</dim>
					<dim>32</dim>
					<dim>40</dim>
					<dim>40</dim>
				</port>
			</input>
			<output>
				<port id="1" precision="FP32" names="291,input.57">
					<dim>1</dim>
					<dim>32</dim>
					<dim>40</dim>
					<dim>40</dim>
				</port>
			</output>
		</layer>
		<layer id="236" name="__module.model.23.cv3.2.1.1.act/aten::silu_/Swish_14/fq_output_0/Constant_25514" type="Const" version="opset1">
			<data element_type="f32" shape="" offset="287536" size="4" />
			<output>
				<port id="0" precision="FP32" />
			</output>
		</layer>
		<layer id="237" name="__module.model.23.cv3.2.1.1.act/aten::silu_/Swish_14/fq_output_0/Constant_25515" type="Const" version="opset1">
			<data element_type="f32" shape="" offset="287540" size="4" />
			<output>
				<port id="0" precision="FP32" />
			</output>
		</layer>
		<layer id="238" name="__module.model.23.cv3.2.1.1.act/aten::silu_/Swish_14/fq_output_0/Constant_25516" type="Const" version="opset1">
			<data element_type="f32" shape="" offset="287536" size="4" />
			<output>
				<port id="0" precision="FP32" />
			</output>
		</layer>
		<layer id="239" name="__module.model.23.cv3.2.1.1.act/aten::silu_/Swish_14/fq_output_0/Constant_25517" type="Const" version="opset1">
			<data element_type="f32" shape="" offset="287540" size="4" />
			<output>
				<port id="0" precision="FP32" />
			</output>
		</layer>
		<layer id="240" name="__module.model.23.cv3.2.1.1.act/aten::silu_/Swish_14/fq_output_0" type="FakeQuantize" version="opset1">
			<data levels="256" auto_broadcast="numpy" />
			<input>
				<port id="0" precision="FP32">
					<dim>1</dim>
					<dim>32</dim>
					<dim>40</dim>
					<dim>40</dim>
				</port>
				<port id="1" precision="FP32" />
				<port id="2" precision="FP32" />
				<port id="3" precision="FP32" />
				<port id="4" precision="FP32" />
			</input>
			<output>
				<port id="5" precision="FP32">
					<dim>1</dim>
					<dim>32</dim>
					<dim>40</dim>
					<dim>40</dim>
				</port>
			</output>
		</layer>
		<layer id="241" name="Constant_497741" type="Const" version="opset1">
			<data element_type="i8" shape="32, 32, 3, 3" offset="287544" size="9216" />
			<output>
				<port id="0" precision="I8">
					<dim>32</dim>
					<dim>32</dim>
					<dim>3</dim>
					<dim>3</dim>
				</port>
			</output>
		</layer>
		<layer id="242" name="Convert_497742" type="Convert" version="opset1">
			<data destination_type="f32" />
			<input>
				<port id="0" precision="I8">
					<dim>32</dim>
					<dim>32</dim>
					<dim>3</dim>
					<dim>3</dim>
				</port>
			</input>
			<output>
				<port id="1" precision="FP32">
					<dim>32</dim>
					<dim>32</dim>
					<dim>3</dim>
					<dim>3</dim>
				</port>
			</output>
		</layer>
		<layer id="243" name="Constant_497743" type="Const" version="opset1">
			<data element_type="f32" shape="32, 1, 1, 1" offset="296760" size="128" />
			<output>
				<port id="0" precision="FP32">
					<dim>32</dim>
					<dim>1</dim>
					<dim>1</dim>
					<dim>1</dim>
				</port>
			</output>
		</layer>
		<layer id="244" name="__module.model.6.m.0.m.0.cv2.conv/aten::_convolution/Convolution/fq_weights_1" type="Multiply" version="opset1">
			<data auto_broadcast="numpy" />
			<input>
				<port id="0" precision="FP32">
					<dim>32</dim>
					<dim>32</dim>
					<dim>3</dim>
					<dim>3</dim>
				</port>
				<port id="1" precision="FP32">
					<dim>32</dim>
					<dim>1</dim>
					<dim>1</dim>
					<dim>1</dim>
				</port>
			</input>
			<output>
				<port id="2" precision="FP32">
					<dim>32</dim>
					<dim>32</dim>
					<dim>3</dim>
					<dim>3</dim>
				</port>
			</output>
		</layer>
		<layer id="245" name="__module.model.6.m.0.m.0.cv2.conv/aten::_convolution/Convolution" type="Convolution" version="opset1">
			<data strides="1, 1" dilations="1, 1" pads_begin="1, 1" pads_end="1, 1" auto_pad="explicit" />
			<input>
				<port id="0" precision="FP32">
					<dim>1</dim>
					<dim>32</dim>
					<dim>40</dim>
					<dim>40</dim>
				</port>
				<port id="1" precision="FP32">
					<dim>32</dim>
					<dim>32</dim>
					<dim>3</dim>
					<dim>3</dim>
				</port>
			</input>
			<output>
				<port id="2" precision="FP32">
					<dim>1</dim>
					<dim>32</dim>
					<dim>40</dim>
					<dim>40</dim>
				</port>
			</output>
		</layer>
		<layer id="246" name="__module.model.6.m.0.m.0.cv2.conv/aten::_convolution/Reshape_compressed" type="Const" version="opset1">
			<data element_type="f16" shape="1, 32, 1, 1" offset="296888" size="64" />
			<output>
				<port id="0" precision="FP16">
					<dim>1</dim>
					<dim>32</dim>
					<dim>1</dim>
					<dim>1</dim>
				</port>
			</output>
		</layer>
		<layer id="247" name="__module.model.6.m.0.m.0.cv2.conv/aten::_convolution/Reshape" type="Convert" version="opset1">
			<data destination_type="f32" />
			<rt_info>
				<attribute name="decompression" version="0" />
			</rt_info>
			<input>
				<port id="0" precision="FP16">
					<dim>1</dim>
					<dim>32</dim>
					<dim>1</dim>
					<dim>1</dim>
				</port>
			</input>
			<output>
				<port id="1" precision="FP32">
					<dim>1</dim>
					<dim>32</dim>
					<dim>1</dim>
					<dim>1</dim>
				</port>
			</output>
		</layer>
		<layer id="248" name="__module.model.6.m.0.m.0.cv2.conv/aten::_convolution/Add" type="Add" version="opset1">
			<data auto_broadcast="numpy" />
			<input>
				<port id="0" precision="FP32">
					<dim>1</dim>
					<dim>32</dim>
					<dim>40</dim>
					<dim>40</dim>
				</port>
				<port id="1" precision="FP32">
					<dim>1</dim>
					<dim>32</dim>
					<dim>1</dim>
					<dim>1</dim>
				</port>
			</input>
			<output>
				<port id="2" precision="FP32" names="300_1">
					<dim>1</dim>
					<dim>32</dim>
					<dim>40</dim>
					<dim>40</dim>
				</port>
			</output>
		</layer>
		<layer id="249" name="__module.model.23.cv3.2.1.1.act/aten::silu_/Swish_15" type="Swish" version="opset4">
			<input>
				<port id="0" precision="FP32">
					<dim>1</dim>
					<dim>32</dim>
					<dim>40</dim>
					<dim>40</dim>
				</port>
			</input>
			<output>
				<port id="1" precision="FP32" names="300,input.61">
					<dim>1</dim>
					<dim>32</dim>
					<dim>40</dim>
					<dim>40</dim>
				</port>
			</output>
		</layer>
		<layer id="250" name="__module.model.23.cv3.2.1.1.act/aten::silu_/Swish_15/fq_output_0/Constant_25524" type="Const" version="opset1">
			<data element_type="f32" shape="" offset="296952" size="4" />
			<output>
				<port id="0" precision="FP32" />
			</output>
		</layer>
		<layer id="251" name="__module.model.23.cv3.2.1.1.act/aten::silu_/Swish_15/fq_output_0/Constant_25525" type="Const" version="opset1">
			<data element_type="f32" shape="" offset="296956" size="4" />
			<output>
				<port id="0" precision="FP32" />
			</output>
		</layer>
		<layer id="252" name="__module.model.23.cv3.2.1.1.act/aten::silu_/Swish_15/fq_output_0/Constant_25526" type="Const" version="opset1">
			<data element_type="f32" shape="" offset="296952" size="4" />
			<output>
				<port id="0" precision="FP32" />
			</output>
		</layer>
		<layer id="253" name="__module.model.23.cv3.2.1.1.act/aten::silu_/Swish_15/fq_output_0/Constant_25527" type="Const" version="opset1">
			<data element_type="f32" shape="" offset="296956" size="4" />
			<output>
				<port id="0" precision="FP32" />
			</output>
		</layer>
		<layer id="254" name="__module.model.23.cv3.2.1.1.act/aten::silu_/Swish_15/fq_output_0" type="FakeQuantize" version="opset1">
			<data levels="256" auto_broadcast="numpy" />
			<input>
				<port id="0" precision="FP32">
					<dim>1</dim>
					<dim>32</dim>
					<dim>40</dim>
					<dim>40</dim>
				</port>
				<port id="1" precision="FP32" />
				<port id="2" precision="FP32" />
				<port id="3" precision="FP32" />
				<port id="4" precision="FP32" />
			</input>
			<output>
				<port id="5" precision="FP32">
					<dim>1</dim>
					<dim>32</dim>
					<dim>40</dim>
					<dim>40</dim>
				</port>
			</output>
		</layer>
		<layer id="255" name="__module.model.6.m.0.m.0/aten::add/Add" type="Add" version="opset1">
			<data auto_broadcast="numpy" />
			<input>
				<port id="0" precision="FP32">
					<dim>1</dim>
					<dim>32</dim>
					<dim>40</dim>
					<dim>40</dim>
				</port>
				<port id="1" precision="FP32">
					<dim>1</dim>
					<dim>32</dim>
					<dim>40</dim>
					<dim>40</dim>
				</port>
			</input>
			<output>
				<port id="2" precision="FP32" names="302,input.63">
					<dim>1</dim>
					<dim>32</dim>
					<dim>40</dim>
					<dim>40</dim>
				</port>
			</output>
		</layer>
		<layer id="256" name="__module.model.6.m.0.m.0/aten::add/Add/fq_output_0/Constant_25529" type="Const" version="opset1">
			<data element_type="f32" shape="" offset="296960" size="4" />
			<output>
				<port id="0" precision="FP32" />
			</output>
		</layer>
		<layer id="257" name="__module.model.6.m.0.m.0/aten::add/Add/fq_output_0/Constant_25530" type="Const" version="opset1">
			<data element_type="f32" shape="" offset="296964" size="4" />
			<output>
				<port id="0" precision="FP32" />
			</output>
		</layer>
		<layer id="258" name="__module.model.6.m.0.m.0/aten::add/Add/fq_output_0/Constant_25531" type="Const" version="opset1">
			<data element_type="f32" shape="" offset="296960" size="4" />
			<output>
				<port id="0" precision="FP32" />
			</output>
		</layer>
		<layer id="259" name="__module.model.6.m.0.m.0/aten::add/Add/fq_output_0/Constant_25532" type="Const" version="opset1">
			<data element_type="f32" shape="" offset="296964" size="4" />
			<output>
				<port id="0" precision="FP32" />
			</output>
		</layer>
		<layer id="260" name="__module.model.6.m.0.m.0/aten::add/Add/fq_output_0" type="FakeQuantize" version="opset1">
			<data levels="256" auto_broadcast="numpy" />
			<input>
				<port id="0" precision="FP32">
					<dim>1</dim>
					<dim>32</dim>
					<dim>40</dim>
					<dim>40</dim>
				</port>
				<port id="1" precision="FP32" />
				<port id="2" precision="FP32" />
				<port id="3" precision="FP32" />
				<port id="4" precision="FP32" />
			</input>
			<output>
				<port id="5" precision="FP32">
					<dim>1</dim>
					<dim>32</dim>
					<dim>40</dim>
					<dim>40</dim>
				</port>
			</output>
		</layer>
		<layer id="261" name="Constant_497746" type="Const" version="opset1">
			<data element_type="i8" shape="32, 32, 3, 3" offset="296968" size="9216" />
			<output>
				<port id="0" precision="I8">
					<dim>32</dim>
					<dim>32</dim>
					<dim>3</dim>
					<dim>3</dim>
				</port>
			</output>
		</layer>
		<layer id="262" name="Convert_497747" type="Convert" version="opset1">
			<data destination_type="f32" />
			<input>
				<port id="0" precision="I8">
					<dim>32</dim>
					<dim>32</dim>
					<dim>3</dim>
					<dim>3</dim>
				</port>
			</input>
			<output>
				<port id="1" precision="FP32">
					<dim>32</dim>
					<dim>32</dim>
					<dim>3</dim>
					<dim>3</dim>
				</port>
			</output>
		</layer>
		<layer id="263" name="Constant_497748" type="Const" version="opset1">
			<data element_type="f32" shape="32, 1, 1, 1" offset="306184" size="128" />
			<output>
				<port id="0" precision="FP32">
					<dim>32</dim>
					<dim>1</dim>
					<dim>1</dim>
					<dim>1</dim>
				</port>
			</output>
		</layer>
		<layer id="264" name="__module.model.6.m.0.m.1.cv1.conv/aten::_convolution/Convolution/fq_weights_1" type="Multiply" version="opset1">
			<data auto_broadcast="numpy" />
			<input>
				<port id="0" precision="FP32">
					<dim>32</dim>
					<dim>32</dim>
					<dim>3</dim>
					<dim>3</dim>
				</port>
				<port id="1" precision="FP32">
					<dim>32</dim>
					<dim>1</dim>
					<dim>1</dim>
					<dim>1</dim>
				</port>
			</input>
			<output>
				<port id="2" precision="FP32">
					<dim>32</dim>
					<dim>32</dim>
					<dim>3</dim>
					<dim>3</dim>
				</port>
			</output>
		</layer>
		<layer id="265" name="__module.model.6.m.0.m.1.cv1.conv/aten::_convolution/Convolution" type="Convolution" version="opset1">
			<data strides="1, 1" dilations="1, 1" pads_begin="1, 1" pads_end="1, 1" auto_pad="explicit" />
			<input>
				<port id="0" precision="FP32">
					<dim>1</dim>
					<dim>32</dim>
					<dim>40</dim>
					<dim>40</dim>
				</port>
				<port id="1" precision="FP32">
					<dim>32</dim>
					<dim>32</dim>
					<dim>3</dim>
					<dim>3</dim>
				</port>
			</input>
			<output>
				<port id="2" precision="FP32">
					<dim>1</dim>
					<dim>32</dim>
					<dim>40</dim>
					<dim>40</dim>
				</port>
			</output>
		</layer>
		<layer id="266" name="__module.model.6.m.0.m.1.cv1.conv/aten::_convolution/Reshape_compressed" type="Const" version="opset1">
			<data element_type="f16" shape="1, 32, 1, 1" offset="306312" size="64" />
			<output>
				<port id="0" precision="FP16">
					<dim>1</dim>
					<dim>32</dim>
					<dim>1</dim>
					<dim>1</dim>
				</port>
			</output>
		</layer>
		<layer id="267" name="__module.model.6.m.0.m.1.cv1.conv/aten::_convolution/Reshape" type="Convert" version="opset1">
			<data destination_type="f32" />
			<rt_info>
				<attribute name="decompression" version="0" />
			</rt_info>
			<input>
				<port id="0" precision="FP16">
					<dim>1</dim>
					<dim>32</dim>
					<dim>1</dim>
					<dim>1</dim>
				</port>
			</input>
			<output>
				<port id="1" precision="FP32">
					<dim>1</dim>
					<dim>32</dim>
					<dim>1</dim>
					<dim>1</dim>
				</port>
			</output>
		</layer>
		<layer id="268" name="__module.model.6.m.0.m.1.cv1.conv/aten::_convolution/Add" type="Add" version="opset1">
			<data auto_broadcast="numpy" />
			<input>
				<port id="0" precision="FP32">
					<dim>1</dim>
					<dim>32</dim>
					<dim>40</dim>
					<dim>40</dim>
				</port>
				<port id="1" precision="FP32">
					<dim>1</dim>
					<dim>32</dim>
					<dim>1</dim>
					<dim>1</dim>
				</port>
			</input>
			<output>
				<port id="2" precision="FP32" names="312_1">
					<dim>1</dim>
					<dim>32</dim>
					<dim>40</dim>
					<dim>40</dim>
				</port>
			</output>
		</layer>
		<layer id="269" name="__module.model.23.cv3.2.1.1.act/aten::silu_/Swish_16" type="Swish" version="opset4">
			<input>
				<port id="0" precision="FP32">
					<dim>1</dim>
					<dim>32</dim>
					<dim>40</dim>
					<dim>40</dim>
				</port>
			</input>
			<output>
				<port id="1" precision="FP32" names="312,input.65">
					<dim>1</dim>
					<dim>32</dim>
					<dim>40</dim>
					<dim>40</dim>
				</port>
			</output>
		</layer>
		<layer id="270" name="__module.model.23.cv3.2.1.1.act/aten::silu_/Swish_16/fq_output_0/Constant_25539" type="Const" version="opset1">
			<data element_type="f32" shape="" offset="306376" size="4" />
			<output>
				<port id="0" precision="FP32" />
			</output>
		</layer>
		<layer id="271" name="__module.model.23.cv3.2.1.1.act/aten::silu_/Swish_16/fq_output_0/Constant_25540" type="Const" version="opset1">
			<data element_type="f32" shape="" offset="306380" size="4" />
			<output>
				<port id="0" precision="FP32" />
			</output>
		</layer>
		<layer id="272" name="__module.model.23.cv3.2.1.1.act/aten::silu_/Swish_16/fq_output_0/Constant_25541" type="Const" version="opset1">
			<data element_type="f32" shape="" offset="306376" size="4" />
			<output>
				<port id="0" precision="FP32" />
			</output>
		</layer>
		<layer id="273" name="__module.model.23.cv3.2.1.1.act/aten::silu_/Swish_16/fq_output_0/Constant_25542" type="Const" version="opset1">
			<data element_type="f32" shape="" offset="306380" size="4" />
			<output>
				<port id="0" precision="FP32" />
			</output>
		</layer>
		<layer id="274" name="__module.model.23.cv3.2.1.1.act/aten::silu_/Swish_16/fq_output_0" type="FakeQuantize" version="opset1">
			<data levels="256" auto_broadcast="numpy" />
			<input>
				<port id="0" precision="FP32">
					<dim>1</dim>
					<dim>32</dim>
					<dim>40</dim>
					<dim>40</dim>
				</port>
				<port id="1" precision="FP32" />
				<port id="2" precision="FP32" />
				<port id="3" precision="FP32" />
				<port id="4" precision="FP32" />
			</input>
			<output>
				<port id="5" precision="FP32">
					<dim>1</dim>
					<dim>32</dim>
					<dim>40</dim>
					<dim>40</dim>
				</port>
			</output>
		</layer>
		<layer id="275" name="Constant_497751" type="Const" version="opset1">
			<data element_type="i8" shape="32, 32, 3, 3" offset="306384" size="9216" />
			<output>
				<port id="0" precision="I8">
					<dim>32</dim>
					<dim>32</dim>
					<dim>3</dim>
					<dim>3</dim>
				</port>
			</output>
		</layer>
		<layer id="276" name="Convert_497752" type="Convert" version="opset1">
			<data destination_type="f32" />
			<input>
				<port id="0" precision="I8">
					<dim>32</dim>
					<dim>32</dim>
					<dim>3</dim>
					<dim>3</dim>
				</port>
			</input>
			<output>
				<port id="1" precision="FP32">
					<dim>32</dim>
					<dim>32</dim>
					<dim>3</dim>
					<dim>3</dim>
				</port>
			</output>
		</layer>
		<layer id="277" name="Constant_497753" type="Const" version="opset1">
			<data element_type="f32" shape="32, 1, 1, 1" offset="315600" size="128" />
			<output>
				<port id="0" precision="FP32">
					<dim>32</dim>
					<dim>1</dim>
					<dim>1</dim>
					<dim>1</dim>
				</port>
			</output>
		</layer>
		<layer id="278" name="__module.model.6.m.0.m.1.cv2.conv/aten::_convolution/Convolution/fq_weights_1" type="Multiply" version="opset1">
			<data auto_broadcast="numpy" />
			<input>
				<port id="0" precision="FP32">
					<dim>32</dim>
					<dim>32</dim>
					<dim>3</dim>
					<dim>3</dim>
				</port>
				<port id="1" precision="FP32">
					<dim>32</dim>
					<dim>1</dim>
					<dim>1</dim>
					<dim>1</dim>
				</port>
			</input>
			<output>
				<port id="2" precision="FP32">
					<dim>32</dim>
					<dim>32</dim>
					<dim>3</dim>
					<dim>3</dim>
				</port>
			</output>
		</layer>
		<layer id="279" name="__module.model.6.m.0.m.1.cv2.conv/aten::_convolution/Convolution" type="Convolution" version="opset1">
			<data strides="1, 1" dilations="1, 1" pads_begin="1, 1" pads_end="1, 1" auto_pad="explicit" />
			<input>
				<port id="0" precision="FP32">
					<dim>1</dim>
					<dim>32</dim>
					<dim>40</dim>
					<dim>40</dim>
				</port>
				<port id="1" precision="FP32">
					<dim>32</dim>
					<dim>32</dim>
					<dim>3</dim>
					<dim>3</dim>
				</port>
			</input>
			<output>
				<port id="2" precision="FP32">
					<dim>1</dim>
					<dim>32</dim>
					<dim>40</dim>
					<dim>40</dim>
				</port>
			</output>
		</layer>
		<layer id="280" name="__module.model.6.m.0.m.1.cv2.conv/aten::_convolution/Reshape_compressed" type="Const" version="opset1">
			<data element_type="f16" shape="1, 32, 1, 1" offset="315728" size="64" />
			<output>
				<port id="0" precision="FP16">
					<dim>1</dim>
					<dim>32</dim>
					<dim>1</dim>
					<dim>1</dim>
				</port>
			</output>
		</layer>
		<layer id="281" name="__module.model.6.m.0.m.1.cv2.conv/aten::_convolution/Reshape" type="Convert" version="opset1">
			<data destination_type="f32" />
			<rt_info>
				<attribute name="decompression" version="0" />
			</rt_info>
			<input>
				<port id="0" precision="FP16">
					<dim>1</dim>
					<dim>32</dim>
					<dim>1</dim>
					<dim>1</dim>
				</port>
			</input>
			<output>
				<port id="1" precision="FP32">
					<dim>1</dim>
					<dim>32</dim>
					<dim>1</dim>
					<dim>1</dim>
				</port>
			</output>
		</layer>
		<layer id="282" name="__module.model.6.m.0.m.1.cv2.conv/aten::_convolution/Add" type="Add" version="opset1">
			<data auto_broadcast="numpy" />
			<input>
				<port id="0" precision="FP32">
					<dim>1</dim>
					<dim>32</dim>
					<dim>40</dim>
					<dim>40</dim>
				</port>
				<port id="1" precision="FP32">
					<dim>1</dim>
					<dim>32</dim>
					<dim>1</dim>
					<dim>1</dim>
				</port>
			</input>
			<output>
				<port id="2" precision="FP32" names="321_1">
					<dim>1</dim>
					<dim>32</dim>
					<dim>40</dim>
					<dim>40</dim>
				</port>
			</output>
		</layer>
		<layer id="283" name="__module.model.23.cv3.2.1.1.act/aten::silu_/Swish_17" type="Swish" version="opset4">
			<input>
				<port id="0" precision="FP32">
					<dim>1</dim>
					<dim>32</dim>
					<dim>40</dim>
					<dim>40</dim>
				</port>
			</input>
			<output>
				<port id="1" precision="FP32" names="321,input.69">
					<dim>1</dim>
					<dim>32</dim>
					<dim>40</dim>
					<dim>40</dim>
				</port>
			</output>
		</layer>
		<layer id="284" name="__module.model.23.cv3.2.1.1.act/aten::silu_/Swish_17/fq_output_0/Constant_25549" type="Const" version="opset1">
			<data element_type="f32" shape="" offset="315792" size="4" />
			<output>
				<port id="0" precision="FP32" />
			</output>
		</layer>
		<layer id="285" name="__module.model.23.cv3.2.1.1.act/aten::silu_/Swish_17/fq_output_0/Constant_25550" type="Const" version="opset1">
			<data element_type="f32" shape="" offset="315796" size="4" />
			<output>
				<port id="0" precision="FP32" />
			</output>
		</layer>
		<layer id="286" name="__module.model.23.cv3.2.1.1.act/aten::silu_/Swish_17/fq_output_0/Constant_25551" type="Const" version="opset1">
			<data element_type="f32" shape="" offset="315792" size="4" />
			<output>
				<port id="0" precision="FP32" />
			</output>
		</layer>
		<layer id="287" name="__module.model.23.cv3.2.1.1.act/aten::silu_/Swish_17/fq_output_0/Constant_25552" type="Const" version="opset1">
			<data element_type="f32" shape="" offset="315796" size="4" />
			<output>
				<port id="0" precision="FP32" />
			</output>
		</layer>
		<layer id="288" name="__module.model.23.cv3.2.1.1.act/aten::silu_/Swish_17/fq_output_0" type="FakeQuantize" version="opset1">
			<data levels="256" auto_broadcast="numpy" />
			<input>
				<port id="0" precision="FP32">
					<dim>1</dim>
					<dim>32</dim>
					<dim>40</dim>
					<dim>40</dim>
				</port>
				<port id="1" precision="FP32" />
				<port id="2" precision="FP32" />
				<port id="3" precision="FP32" />
				<port id="4" precision="FP32" />
			</input>
			<output>
				<port id="5" precision="FP32">
					<dim>1</dim>
					<dim>32</dim>
					<dim>40</dim>
					<dim>40</dim>
				</port>
			</output>
		</layer>
		<layer id="289" name="__module.model.6.m.0.m.1/aten::add/Add" type="Add" version="opset1">
			<data auto_broadcast="numpy" />
			<input>
				<port id="0" precision="FP32">
					<dim>1</dim>
					<dim>32</dim>
					<dim>40</dim>
					<dim>40</dim>
				</port>
				<port id="1" precision="FP32">
					<dim>1</dim>
					<dim>32</dim>
					<dim>40</dim>
					<dim>40</dim>
				</port>
			</input>
			<output>
				<port id="2" precision="FP32" names="323">
					<dim>1</dim>
					<dim>32</dim>
					<dim>40</dim>
					<dim>40</dim>
				</port>
			</output>
		</layer>
		<layer id="290" name="__module.model.6.m.0.m.1/aten::add/Add/fq_output_0/Constant_25214" type="Const" version="opset1">
			<data element_type="f32" shape="" offset="315800" size="4" />
			<output>
				<port id="0" precision="FP32" />
			</output>
		</layer>
		<layer id="291" name="__module.model.6.m.0.m.1/aten::add/Add/fq_output_0/Constant_25215" type="Const" version="opset1">
			<data element_type="f32" shape="" offset="315804" size="4" />
			<output>
				<port id="0" precision="FP32" />
			</output>
		</layer>
		<layer id="292" name="__module.model.6.m.0.m.1/aten::add/Add/fq_output_0/Constant_25216" type="Const" version="opset1">
			<data element_type="f32" shape="" offset="315800" size="4" />
			<output>
				<port id="0" precision="FP32" />
			</output>
		</layer>
		<layer id="293" name="__module.model.6.m.0.m.1/aten::add/Add/fq_output_0/Constant_25217" type="Const" version="opset1">
			<data element_type="f32" shape="" offset="315804" size="4" />
			<output>
				<port id="0" precision="FP32" />
			</output>
		</layer>
		<layer id="294" name="__module.model.6.m.0.m.1/aten::add/Add/fq_output_0" type="FakeQuantize" version="opset1">
			<data levels="256" auto_broadcast="numpy" />
			<input>
				<port id="0" precision="FP32">
					<dim>1</dim>
					<dim>32</dim>
					<dim>40</dim>
					<dim>40</dim>
				</port>
				<port id="1" precision="FP32" />
				<port id="2" precision="FP32" />
				<port id="3" precision="FP32" />
				<port id="4" precision="FP32" />
			</input>
			<output>
				<port id="5" precision="FP32">
					<dim>1</dim>
					<dim>32</dim>
					<dim>40</dim>
					<dim>40</dim>
				</port>
			</output>
		</layer>
		<layer id="295" name="Constant_497756" type="Const" version="opset1">
			<data element_type="i8" shape="32, 64, 1, 1" offset="315808" size="2048" />
			<output>
				<port id="0" precision="I8">
					<dim>32</dim>
					<dim>64</dim>
					<dim>1</dim>
					<dim>1</dim>
				</port>
			</output>
		</layer>
		<layer id="296" name="Convert_497757" type="Convert" version="opset1">
			<data destination_type="f32" />
			<input>
				<port id="0" precision="I8">
					<dim>32</dim>
					<dim>64</dim>
					<dim>1</dim>
					<dim>1</dim>
				</port>
			</input>
			<output>
				<port id="1" precision="FP32">
					<dim>32</dim>
					<dim>64</dim>
					<dim>1</dim>
					<dim>1</dim>
				</port>
			</output>
		</layer>
		<layer id="297" name="Constant_497758" type="Const" version="opset1">
			<data element_type="f32" shape="32, 1, 1, 1" offset="317856" size="128" />
			<output>
				<port id="0" precision="FP32">
					<dim>32</dim>
					<dim>1</dim>
					<dim>1</dim>
					<dim>1</dim>
				</port>
			</output>
		</layer>
		<layer id="298" name="__module.model.6.m.0.cv2.conv/aten::_convolution/Convolution/fq_weights_1" type="Multiply" version="opset1">
			<data auto_broadcast="numpy" />
			<input>
				<port id="0" precision="FP32">
					<dim>32</dim>
					<dim>64</dim>
					<dim>1</dim>
					<dim>1</dim>
				</port>
				<port id="1" precision="FP32">
					<dim>32</dim>
					<dim>1</dim>
					<dim>1</dim>
					<dim>1</dim>
				</port>
			</input>
			<output>
				<port id="2" precision="FP32">
					<dim>32</dim>
					<dim>64</dim>
					<dim>1</dim>
					<dim>1</dim>
				</port>
			</output>
		</layer>
		<layer id="299" name="__module.model.6.m.0.cv2.conv/aten::_convolution/Convolution" type="Convolution" version="opset1">
			<data strides="1, 1" dilations="1, 1" pads_begin="0, 0" pads_end="0, 0" auto_pad="explicit" />
			<input>
				<port id="0" precision="FP32">
					<dim>1</dim>
					<dim>64</dim>
					<dim>40</dim>
					<dim>40</dim>
				</port>
				<port id="1" precision="FP32">
					<dim>32</dim>
					<dim>64</dim>
					<dim>1</dim>
					<dim>1</dim>
				</port>
			</input>
			<output>
				<port id="2" precision="FP32">
					<dim>1</dim>
					<dim>32</dim>
					<dim>40</dim>
					<dim>40</dim>
				</port>
			</output>
		</layer>
		<layer id="300" name="__module.model.6.m.0.cv2.conv/aten::_convolution/Reshape_compressed" type="Const" version="opset1">
			<data element_type="f16" shape="1, 32, 1, 1" offset="317984" size="64" />
			<output>
				<port id="0" precision="FP16">
					<dim>1</dim>
					<dim>32</dim>
					<dim>1</dim>
					<dim>1</dim>
				</port>
			</output>
		</layer>
		<layer id="301" name="__module.model.6.m.0.cv2.conv/aten::_convolution/Reshape" type="Convert" version="opset1">
			<data destination_type="f32" />
			<rt_info>
				<attribute name="decompression" version="0" />
			</rt_info>
			<input>
				<port id="0" precision="FP16">
					<dim>1</dim>
					<dim>32</dim>
					<dim>1</dim>
					<dim>1</dim>
				</port>
			</input>
			<output>
				<port id="1" precision="FP32">
					<dim>1</dim>
					<dim>32</dim>
					<dim>1</dim>
					<dim>1</dim>
				</port>
			</output>
		</layer>
		<layer id="302" name="__module.model.6.m.0.cv2.conv/aten::_convolution/Add" type="Add" version="opset1">
			<data auto_broadcast="numpy" />
			<input>
				<port id="0" precision="FP32">
					<dim>1</dim>
					<dim>32</dim>
					<dim>40</dim>
					<dim>40</dim>
				</port>
				<port id="1" precision="FP32">
					<dim>1</dim>
					<dim>32</dim>
					<dim>1</dim>
					<dim>1</dim>
				</port>
			</input>
			<output>
				<port id="2" precision="FP32" names="331_1">
					<dim>1</dim>
					<dim>32</dim>
					<dim>40</dim>
					<dim>40</dim>
				</port>
			</output>
		</layer>
		<layer id="303" name="__module.model.23.cv3.2.1.1.act/aten::silu_/Swish_18" type="Swish" version="opset4">
			<input>
				<port id="0" precision="FP32">
					<dim>1</dim>
					<dim>32</dim>
					<dim>40</dim>
					<dim>40</dim>
				</port>
			</input>
			<output>
				<port id="1" precision="FP32" names="331,input.71">
					<dim>1</dim>
					<dim>32</dim>
					<dim>40</dim>
					<dim>40</dim>
				</port>
			</output>
		</layer>
		<layer id="304" name="__module.model.23.cv3.2.1.1.act/aten::silu_/Swish_18/fq_output_0/Constant_25219" type="Const" version="opset1">
			<data element_type="f32" shape="" offset="315800" size="4" />
			<output>
				<port id="0" precision="FP32" />
			</output>
		</layer>
		<layer id="305" name="__module.model.23.cv3.2.1.1.act/aten::silu_/Swish_18/fq_output_0/Constant_25220" type="Const" version="opset1">
			<data element_type="f32" shape="" offset="315804" size="4" />
			<output>
				<port id="0" precision="FP32" />
			</output>
		</layer>
		<layer id="306" name="__module.model.23.cv3.2.1.1.act/aten::silu_/Swish_18/fq_output_0/Constant_25221" type="Const" version="opset1">
			<data element_type="f32" shape="" offset="315800" size="4" />
			<output>
				<port id="0" precision="FP32" />
			</output>
		</layer>
		<layer id="307" name="__module.model.23.cv3.2.1.1.act/aten::silu_/Swish_18/fq_output_0/Constant_25222" type="Const" version="opset1">
			<data element_type="f32" shape="" offset="315804" size="4" />
			<output>
				<port id="0" precision="FP32" />
			</output>
		</layer>
		<layer id="308" name="__module.model.23.cv3.2.1.1.act/aten::silu_/Swish_18/fq_output_0" type="FakeQuantize" version="opset1">
			<data levels="256" auto_broadcast="numpy" />
			<input>
				<port id="0" precision="FP32">
					<dim>1</dim>
					<dim>32</dim>
					<dim>40</dim>
					<dim>40</dim>
				</port>
				<port id="1" precision="FP32" />
				<port id="2" precision="FP32" />
				<port id="3" precision="FP32" />
				<port id="4" precision="FP32" />
			</input>
			<output>
				<port id="5" precision="FP32">
					<dim>1</dim>
					<dim>32</dim>
					<dim>40</dim>
					<dim>40</dim>
				</port>
			</output>
		</layer>
		<layer id="309" name="__module.model.6.m.0/aten::cat/Concat" type="Concat" version="opset1">
			<data axis="1" />
			<input>
				<port id="0" precision="FP32">
					<dim>1</dim>
					<dim>32</dim>
					<dim>40</dim>
					<dim>40</dim>
				</port>
				<port id="1" precision="FP32">
					<dim>1</dim>
					<dim>32</dim>
					<dim>40</dim>
					<dim>40</dim>
				</port>
			</input>
			<output>
				<port id="2" precision="FP32" names="334,input.73">
					<dim>1</dim>
					<dim>64</dim>
					<dim>40</dim>
					<dim>40</dim>
				</port>
			</output>
		</layer>
		<layer id="310" name="Constant_497761" type="Const" version="opset1">
			<data element_type="i8" shape="64, 64, 1, 1" offset="318048" size="4096" />
			<output>
				<port id="0" precision="I8">
					<dim>64</dim>
					<dim>64</dim>
					<dim>1</dim>
					<dim>1</dim>
				</port>
			</output>
		</layer>
		<layer id="311" name="Convert_497762" type="Convert" version="opset1">
			<data destination_type="f32" />
			<input>
				<port id="0" precision="I8">
					<dim>64</dim>
					<dim>64</dim>
					<dim>1</dim>
					<dim>1</dim>
				</port>
			</input>
			<output>
				<port id="1" precision="FP32">
					<dim>64</dim>
					<dim>64</dim>
					<dim>1</dim>
					<dim>1</dim>
				</port>
			</output>
		</layer>
		<layer id="312" name="Constant_497763" type="Const" version="opset1">
			<data element_type="f32" shape="64, 1, 1, 1" offset="322144" size="256" />
			<output>
				<port id="0" precision="FP32">
					<dim>64</dim>
					<dim>1</dim>
					<dim>1</dim>
					<dim>1</dim>
				</port>
			</output>
		</layer>
		<layer id="313" name="__module.model.6.m.0.cv3.conv/aten::_convolution/Convolution/fq_weights_1" type="Multiply" version="opset1">
			<data auto_broadcast="numpy" />
			<input>
				<port id="0" precision="FP32">
					<dim>64</dim>
					<dim>64</dim>
					<dim>1</dim>
					<dim>1</dim>
				</port>
				<port id="1" precision="FP32">
					<dim>64</dim>
					<dim>1</dim>
					<dim>1</dim>
					<dim>1</dim>
				</port>
			</input>
			<output>
				<port id="2" precision="FP32">
					<dim>64</dim>
					<dim>64</dim>
					<dim>1</dim>
					<dim>1</dim>
				</port>
			</output>
		</layer>
		<layer id="314" name="__module.model.6.m.0.cv3.conv/aten::_convolution/Convolution" type="Convolution" version="opset1">
			<data strides="1, 1" dilations="1, 1" pads_begin="0, 0" pads_end="0, 0" auto_pad="explicit" />
			<input>
				<port id="0" precision="FP32">
					<dim>1</dim>
					<dim>64</dim>
					<dim>40</dim>
					<dim>40</dim>
				</port>
				<port id="1" precision="FP32">
					<dim>64</dim>
					<dim>64</dim>
					<dim>1</dim>
					<dim>1</dim>
				</port>
			</input>
			<output>
				<port id="2" precision="FP32">
					<dim>1</dim>
					<dim>64</dim>
					<dim>40</dim>
					<dim>40</dim>
				</port>
			</output>
		</layer>
		<layer id="315" name="__module.model.6.m.0.cv3.conv/aten::_convolution/Reshape_compressed" type="Const" version="opset1">
			<data element_type="f16" shape="1, 64, 1, 1" offset="322400" size="128" />
			<output>
				<port id="0" precision="FP16">
					<dim>1</dim>
					<dim>64</dim>
					<dim>1</dim>
					<dim>1</dim>
				</port>
			</output>
		</layer>
		<layer id="316" name="__module.model.6.m.0.cv3.conv/aten::_convolution/Reshape" type="Convert" version="opset1">
			<data destination_type="f32" />
			<rt_info>
				<attribute name="decompression" version="0" />
			</rt_info>
			<input>
				<port id="0" precision="FP16">
					<dim>1</dim>
					<dim>64</dim>
					<dim>1</dim>
					<dim>1</dim>
				</port>
			</input>
			<output>
				<port id="1" precision="FP32">
					<dim>1</dim>
					<dim>64</dim>
					<dim>1</dim>
					<dim>1</dim>
				</port>
			</output>
		</layer>
		<layer id="317" name="__module.model.6.m.0.cv3.conv/aten::_convolution/Add" type="Add" version="opset1">
			<data auto_broadcast="numpy" />
			<input>
				<port id="0" precision="FP32">
					<dim>1</dim>
					<dim>64</dim>
					<dim>40</dim>
					<dim>40</dim>
				</port>
				<port id="1" precision="FP32">
					<dim>1</dim>
					<dim>64</dim>
					<dim>1</dim>
					<dim>1</dim>
				</port>
			</input>
			<output>
				<port id="2" precision="FP32" names="342_1">
					<dim>1</dim>
					<dim>64</dim>
					<dim>40</dim>
					<dim>40</dim>
				</port>
			</output>
		</layer>
		<layer id="318" name="__module.model.23.cv3.2.1.1.act/aten::silu_/Swish_19" type="Swish" version="opset4">
			<input>
				<port id="0" precision="FP32">
					<dim>1</dim>
					<dim>64</dim>
					<dim>40</dim>
					<dim>40</dim>
				</port>
			</input>
			<output>
				<port id="1" precision="FP32" names="342,input.75">
					<dim>1</dim>
					<dim>64</dim>
					<dim>40</dim>
					<dim>40</dim>
				</port>
			</output>
		</layer>
		<layer id="319" name="__module.model.23.cv3.2.1.1.act/aten::silu_/Swish_19/fq_output_0/Constant_25274" type="Const" version="opset1">
			<data element_type="f32" shape="" offset="275856" size="4" />
			<output>
				<port id="0" precision="FP32" />
			</output>
		</layer>
		<layer id="320" name="__module.model.23.cv3.2.1.1.act/aten::silu_/Swish_19/fq_output_0/Constant_25275" type="Const" version="opset1">
			<data element_type="f32" shape="" offset="275860" size="4" />
			<output>
				<port id="0" precision="FP32" />
			</output>
		</layer>
		<layer id="321" name="__module.model.23.cv3.2.1.1.act/aten::silu_/Swish_19/fq_output_0/Constant_25276" type="Const" version="opset1">
			<data element_type="f32" shape="" offset="275856" size="4" />
			<output>
				<port id="0" precision="FP32" />
			</output>
		</layer>
		<layer id="322" name="__module.model.23.cv3.2.1.1.act/aten::silu_/Swish_19/fq_output_0/Constant_25277" type="Const" version="opset1">
			<data element_type="f32" shape="" offset="275860" size="4" />
			<output>
				<port id="0" precision="FP32" />
			</output>
		</layer>
		<layer id="323" name="__module.model.23.cv3.2.1.1.act/aten::silu_/Swish_19/fq_output_0" type="FakeQuantize" version="opset1">
			<data levels="256" auto_broadcast="numpy" />
			<input>
				<port id="0" precision="FP32">
					<dim>1</dim>
					<dim>64</dim>
					<dim>40</dim>
					<dim>40</dim>
				</port>
				<port id="1" precision="FP32" />
				<port id="2" precision="FP32" />
				<port id="3" precision="FP32" />
				<port id="4" precision="FP32" />
			</input>
			<output>
				<port id="5" precision="FP32">
					<dim>1</dim>
					<dim>64</dim>
					<dim>40</dim>
					<dim>40</dim>
				</port>
			</output>
		</layer>
		<layer id="324" name="__module.model.6/aten::cat/Concat" type="Concat" version="opset1">
			<data axis="1" />
			<input>
				<port id="0" precision="FP32">
					<dim>1</dim>
					<dim>64</dim>
					<dim>40</dim>
					<dim>40</dim>
				</port>
				<port id="1" precision="FP32">
					<dim>1</dim>
					<dim>64</dim>
					<dim>40</dim>
					<dim>40</dim>
				</port>
				<port id="2" precision="FP32">
					<dim>1</dim>
					<dim>64</dim>
					<dim>40</dim>
					<dim>40</dim>
				</port>
			</input>
			<output>
				<port id="3" precision="FP32" names="345,input.77">
					<dim>1</dim>
					<dim>192</dim>
					<dim>40</dim>
					<dim>40</dim>
				</port>
			</output>
		</layer>
		<layer id="325" name="Constant_497766" type="Const" version="opset1">
			<data element_type="i8" shape="128, 192, 1, 1" offset="322528" size="24576" />
			<output>
				<port id="0" precision="I8">
					<dim>128</dim>
					<dim>192</dim>
					<dim>1</dim>
					<dim>1</dim>
				</port>
			</output>
		</layer>
		<layer id="326" name="Convert_497767" type="Convert" version="opset1">
			<data destination_type="f32" />
			<input>
				<port id="0" precision="I8">
					<dim>128</dim>
					<dim>192</dim>
					<dim>1</dim>
					<dim>1</dim>
				</port>
			</input>
			<output>
				<port id="1" precision="FP32">
					<dim>128</dim>
					<dim>192</dim>
					<dim>1</dim>
					<dim>1</dim>
				</port>
			</output>
		</layer>
		<layer id="327" name="Constant_497768" type="Const" version="opset1">
			<data element_type="f32" shape="128, 1, 1, 1" offset="347104" size="512" />
			<output>
				<port id="0" precision="FP32">
					<dim>128</dim>
					<dim>1</dim>
					<dim>1</dim>
					<dim>1</dim>
				</port>
			</output>
		</layer>
		<layer id="328" name="__module.model.6.cv2.conv/aten::_convolution/Convolution/fq_weights_1" type="Multiply" version="opset1">
			<data auto_broadcast="numpy" />
			<input>
				<port id="0" precision="FP32">
					<dim>128</dim>
					<dim>192</dim>
					<dim>1</dim>
					<dim>1</dim>
				</port>
				<port id="1" precision="FP32">
					<dim>128</dim>
					<dim>1</dim>
					<dim>1</dim>
					<dim>1</dim>
				</port>
			</input>
			<output>
				<port id="2" precision="FP32">
					<dim>128</dim>
					<dim>192</dim>
					<dim>1</dim>
					<dim>1</dim>
				</port>
			</output>
		</layer>
		<layer id="329" name="__module.model.6.cv2.conv/aten::_convolution/Convolution" type="Convolution" version="opset1">
			<data strides="1, 1" dilations="1, 1" pads_begin="0, 0" pads_end="0, 0" auto_pad="explicit" />
			<input>
				<port id="0" precision="FP32">
					<dim>1</dim>
					<dim>192</dim>
					<dim>40</dim>
					<dim>40</dim>
				</port>
				<port id="1" precision="FP32">
					<dim>128</dim>
					<dim>192</dim>
					<dim>1</dim>
					<dim>1</dim>
				</port>
			</input>
			<output>
				<port id="2" precision="FP32">
					<dim>1</dim>
					<dim>128</dim>
					<dim>40</dim>
					<dim>40</dim>
				</port>
			</output>
		</layer>
		<layer id="330" name="__module.model.6.cv2.conv/aten::_convolution/Reshape_compressed" type="Const" version="opset1">
			<data element_type="f16" shape="1, 128, 1, 1" offset="347616" size="256" />
			<output>
				<port id="0" precision="FP16">
					<dim>1</dim>
					<dim>128</dim>
					<dim>1</dim>
					<dim>1</dim>
				</port>
			</output>
		</layer>
		<layer id="331" name="__module.model.6.cv2.conv/aten::_convolution/Reshape" type="Convert" version="opset1">
			<data destination_type="f32" />
			<rt_info>
				<attribute name="decompression" version="0" />
			</rt_info>
			<input>
				<port id="0" precision="FP16">
					<dim>1</dim>
					<dim>128</dim>
					<dim>1</dim>
					<dim>1</dim>
				</port>
			</input>
			<output>
				<port id="1" precision="FP32">
					<dim>1</dim>
					<dim>128</dim>
					<dim>1</dim>
					<dim>1</dim>
				</port>
			</output>
		</layer>
		<layer id="332" name="__module.model.6.cv2.conv/aten::_convolution/Add" type="Add" version="opset1">
			<data auto_broadcast="numpy" />
			<input>
				<port id="0" precision="FP32">
					<dim>1</dim>
					<dim>128</dim>
					<dim>40</dim>
					<dim>40</dim>
				</port>
				<port id="1" precision="FP32">
					<dim>1</dim>
					<dim>128</dim>
					<dim>1</dim>
					<dim>1</dim>
				</port>
			</input>
			<output>
				<port id="2" precision="FP32" names="353_1">
					<dim>1</dim>
					<dim>128</dim>
					<dim>40</dim>
					<dim>40</dim>
				</port>
			</output>
		</layer>
		<layer id="333" name="__module.model.23.cv3.2.1.1.act/aten::silu_/Swish_20" type="Swish" version="opset4">
			<input>
				<port id="0" precision="FP32">
					<dim>1</dim>
					<dim>128</dim>
					<dim>40</dim>
					<dim>40</dim>
				</port>
			</input>
			<output>
				<port id="1" precision="FP32" names="353,input.79">
					<dim>1</dim>
					<dim>128</dim>
					<dim>40</dim>
					<dim>40</dim>
				</port>
			</output>
		</layer>
		<layer id="334" name="__module.model.23.cv3.2.1.1.act/aten::silu_/Swish_20/fq_output_0/Constant_25289" type="Const" version="opset1">
			<data element_type="f32" shape="" offset="347872" size="4" />
			<output>
				<port id="0" precision="FP32" />
			</output>
		</layer>
		<layer id="335" name="__module.model.23.cv3.2.1.1.act/aten::silu_/Swish_20/fq_output_0/Constant_25290" type="Const" version="opset1">
			<data element_type="f32" shape="" offset="347876" size="4" />
			<output>
				<port id="0" precision="FP32" />
			</output>
		</layer>
		<layer id="336" name="__module.model.23.cv3.2.1.1.act/aten::silu_/Swish_20/fq_output_0/Constant_25291" type="Const" version="opset1">
			<data element_type="f32" shape="" offset="347872" size="4" />
			<output>
				<port id="0" precision="FP32" />
			</output>
		</layer>
		<layer id="337" name="__module.model.23.cv3.2.1.1.act/aten::silu_/Swish_20/fq_output_0/Constant_25292" type="Const" version="opset1">
			<data element_type="f32" shape="" offset="347876" size="4" />
			<output>
				<port id="0" precision="FP32" />
			</output>
		</layer>
		<layer id="338" name="__module.model.23.cv3.2.1.1.act/aten::silu_/Swish_20/fq_output_0" type="FakeQuantize" version="opset1">
			<data levels="256" auto_broadcast="numpy" />
			<input>
				<port id="0" precision="FP32">
					<dim>1</dim>
					<dim>128</dim>
					<dim>40</dim>
					<dim>40</dim>
				</port>
				<port id="1" precision="FP32" />
				<port id="2" precision="FP32" />
				<port id="3" precision="FP32" />
				<port id="4" precision="FP32" />
			</input>
			<output>
				<port id="5" precision="FP32">
					<dim>1</dim>
					<dim>128</dim>
					<dim>40</dim>
					<dim>40</dim>
				</port>
			</output>
		</layer>
		<layer id="339" name="Constant_497771" type="Const" version="opset1">
			<data element_type="i8" shape="256, 128, 3, 3" offset="347880" size="294912" />
			<output>
				<port id="0" precision="I8">
					<dim>256</dim>
					<dim>128</dim>
					<dim>3</dim>
					<dim>3</dim>
				</port>
			</output>
		</layer>
		<layer id="340" name="Convert_497772" type="Convert" version="opset1">
			<data destination_type="f32" />
			<input>
				<port id="0" precision="I8">
					<dim>256</dim>
					<dim>128</dim>
					<dim>3</dim>
					<dim>3</dim>
				</port>
			</input>
			<output>
				<port id="1" precision="FP32">
					<dim>256</dim>
					<dim>128</dim>
					<dim>3</dim>
					<dim>3</dim>
				</port>
			</output>
		</layer>
		<layer id="341" name="Constant_497773" type="Const" version="opset1">
			<data element_type="f32" shape="256, 1, 1, 1" offset="642792" size="1024" />
			<output>
				<port id="0" precision="FP32">
					<dim>256</dim>
					<dim>1</dim>
					<dim>1</dim>
					<dim>1</dim>
				</port>
			</output>
		</layer>
		<layer id="342" name="__module.model.7.conv/aten::_convolution/Convolution/fq_weights_1" type="Multiply" version="opset1">
			<data auto_broadcast="numpy" />
			<input>
				<port id="0" precision="FP32">
					<dim>256</dim>
					<dim>128</dim>
					<dim>3</dim>
					<dim>3</dim>
				</port>
				<port id="1" precision="FP32">
					<dim>256</dim>
					<dim>1</dim>
					<dim>1</dim>
					<dim>1</dim>
				</port>
			</input>
			<output>
				<port id="2" precision="FP32">
					<dim>256</dim>
					<dim>128</dim>
					<dim>3</dim>
					<dim>3</dim>
				</port>
			</output>
		</layer>
		<layer id="343" name="__module.model.7.conv/aten::_convolution/Convolution" type="Convolution" version="opset1">
			<data strides="2, 2" dilations="1, 1" pads_begin="1, 1" pads_end="1, 1" auto_pad="explicit" />
			<input>
				<port id="0" precision="FP32">
					<dim>1</dim>
					<dim>128</dim>
					<dim>40</dim>
					<dim>40</dim>
				</port>
				<port id="1" precision="FP32">
					<dim>256</dim>
					<dim>128</dim>
					<dim>3</dim>
					<dim>3</dim>
				</port>
			</input>
			<output>
				<port id="2" precision="FP32">
					<dim>1</dim>
					<dim>256</dim>
					<dim>20</dim>
					<dim>20</dim>
				</port>
			</output>
		</layer>
		<layer id="344" name="__module.model.7.conv/aten::_convolution/Reshape_compressed" type="Const" version="opset1">
			<data element_type="f16" shape="1, 256, 1, 1" offset="643816" size="512" />
			<output>
				<port id="0" precision="FP16">
					<dim>1</dim>
					<dim>256</dim>
					<dim>1</dim>
					<dim>1</dim>
				</port>
			</output>
		</layer>
		<layer id="345" name="__module.model.7.conv/aten::_convolution/Reshape" type="Convert" version="opset1">
			<data destination_type="f32" />
			<rt_info>
				<attribute name="decompression" version="0" />
			</rt_info>
			<input>
				<port id="0" precision="FP16">
					<dim>1</dim>
					<dim>256</dim>
					<dim>1</dim>
					<dim>1</dim>
				</port>
			</input>
			<output>
				<port id="1" precision="FP32">
					<dim>1</dim>
					<dim>256</dim>
					<dim>1</dim>
					<dim>1</dim>
				</port>
			</output>
		</layer>
		<layer id="346" name="__module.model.7.conv/aten::_convolution/Add" type="Add" version="opset1">
			<data auto_broadcast="numpy" />
			<input>
				<port id="0" precision="FP32">
					<dim>1</dim>
					<dim>256</dim>
					<dim>20</dim>
					<dim>20</dim>
				</port>
				<port id="1" precision="FP32">
					<dim>1</dim>
					<dim>256</dim>
					<dim>1</dim>
					<dim>1</dim>
				</port>
			</input>
			<output>
				<port id="2" precision="FP32" names="367_1">
					<dim>1</dim>
					<dim>256</dim>
					<dim>20</dim>
					<dim>20</dim>
				</port>
			</output>
		</layer>
		<layer id="347" name="__module.model.23.cv3.2.1.1.act/aten::silu_/Swish_21" type="Swish" version="opset4">
			<input>
				<port id="0" precision="FP32">
					<dim>1</dim>
					<dim>256</dim>
					<dim>20</dim>
					<dim>20</dim>
				</port>
			</input>
			<output>
				<port id="1" precision="FP32" names="367,input.83">
					<dim>1</dim>
					<dim>256</dim>
					<dim>20</dim>
					<dim>20</dim>
				</port>
			</output>
		</layer>
		<layer id="348" name="__module.model.23.cv3.2.1.1.act/aten::silu_/Swish_21/fq_output_0/Constant_25569" type="Const" version="opset1">
			<data element_type="f32" shape="" offset="644328" size="4" />
			<output>
				<port id="0" precision="FP32" />
			</output>
		</layer>
		<layer id="349" name="__module.model.23.cv3.2.1.1.act/aten::silu_/Swish_21/fq_output_0/Constant_25570" type="Const" version="opset1">
			<data element_type="f32" shape="" offset="644332" size="4" />
			<output>
				<port id="0" precision="FP32" />
			</output>
		</layer>
		<layer id="350" name="__module.model.23.cv3.2.1.1.act/aten::silu_/Swish_21/fq_output_0/Constant_25571" type="Const" version="opset1">
			<data element_type="f32" shape="" offset="644328" size="4" />
			<output>
				<port id="0" precision="FP32" />
			</output>
		</layer>
		<layer id="351" name="__module.model.23.cv3.2.1.1.act/aten::silu_/Swish_21/fq_output_0/Constant_25572" type="Const" version="opset1">
			<data element_type="f32" shape="" offset="644332" size="4" />
			<output>
				<port id="0" precision="FP32" />
			</output>
		</layer>
		<layer id="352" name="__module.model.23.cv3.2.1.1.act/aten::silu_/Swish_21/fq_output_0" type="FakeQuantize" version="opset1">
			<data levels="256" auto_broadcast="numpy" />
			<input>
				<port id="0" precision="FP32">
					<dim>1</dim>
					<dim>256</dim>
					<dim>20</dim>
					<dim>20</dim>
				</port>
				<port id="1" precision="FP32" />
				<port id="2" precision="FP32" />
				<port id="3" precision="FP32" />
				<port id="4" precision="FP32" />
			</input>
			<output>
				<port id="5" precision="FP32">
					<dim>1</dim>
					<dim>256</dim>
					<dim>20</dim>
					<dim>20</dim>
				</port>
			</output>
		</layer>
		<layer id="353" name="Constant_497776" type="Const" version="opset1">
			<data element_type="i8" shape="256, 256, 1, 1" offset="644336" size="65536" />
			<output>
				<port id="0" precision="I8">
					<dim>256</dim>
					<dim>256</dim>
					<dim>1</dim>
					<dim>1</dim>
				</port>
			</output>
		</layer>
		<layer id="354" name="Convert_497777" type="Convert" version="opset1">
			<data destination_type="f32" />
			<input>
				<port id="0" precision="I8">
					<dim>256</dim>
					<dim>256</dim>
					<dim>1</dim>
					<dim>1</dim>
				</port>
			</input>
			<output>
				<port id="1" precision="FP32">
					<dim>256</dim>
					<dim>256</dim>
					<dim>1</dim>
					<dim>1</dim>
				</port>
			</output>
		</layer>
		<layer id="355" name="Constant_497778" type="Const" version="opset1">
			<data element_type="f32" shape="256, 1, 1, 1" offset="709872" size="1024" />
			<output>
				<port id="0" precision="FP32">
					<dim>256</dim>
					<dim>1</dim>
					<dim>1</dim>
					<dim>1</dim>
				</port>
			</output>
		</layer>
		<layer id="356" name="__module.model.8.cv1.conv/aten::_convolution/Convolution/fq_weights_1" type="Multiply" version="opset1">
			<data auto_broadcast="numpy" />
			<input>
				<port id="0" precision="FP32">
					<dim>256</dim>
					<dim>256</dim>
					<dim>1</dim>
					<dim>1</dim>
				</port>
				<port id="1" precision="FP32">
					<dim>256</dim>
					<dim>1</dim>
					<dim>1</dim>
					<dim>1</dim>
				</port>
			</input>
			<output>
				<port id="2" precision="FP32">
					<dim>256</dim>
					<dim>256</dim>
					<dim>1</dim>
					<dim>1</dim>
				</port>
			</output>
		</layer>
		<layer id="357" name="__module.model.8.cv1.conv/aten::_convolution/Convolution" type="Convolution" version="opset1">
			<data strides="1, 1" dilations="1, 1" pads_begin="0, 0" pads_end="0, 0" auto_pad="explicit" />
			<input>
				<port id="0" precision="FP32">
					<dim>1</dim>
					<dim>256</dim>
					<dim>20</dim>
					<dim>20</dim>
				</port>
				<port id="1" precision="FP32">
					<dim>256</dim>
					<dim>256</dim>
					<dim>1</dim>
					<dim>1</dim>
				</port>
			</input>
			<output>
				<port id="2" precision="FP32">
					<dim>1</dim>
					<dim>256</dim>
					<dim>20</dim>
					<dim>20</dim>
				</port>
			</output>
		</layer>
		<layer id="358" name="__module.model.8.cv1.conv/aten::_convolution/Reshape_compressed" type="Const" version="opset1">
			<data element_type="f16" shape="1, 256, 1, 1" offset="710896" size="512" />
			<output>
				<port id="0" precision="FP16">
					<dim>1</dim>
					<dim>256</dim>
					<dim>1</dim>
					<dim>1</dim>
				</port>
			</output>
		</layer>
		<layer id="359" name="__module.model.8.cv1.conv/aten::_convolution/Reshape" type="Convert" version="opset1">
			<data destination_type="f32" />
			<rt_info>
				<attribute name="decompression" version="0" />
			</rt_info>
			<input>
				<port id="0" precision="FP16">
					<dim>1</dim>
					<dim>256</dim>
					<dim>1</dim>
					<dim>1</dim>
				</port>
			</input>
			<output>
				<port id="1" precision="FP32">
					<dim>1</dim>
					<dim>256</dim>
					<dim>1</dim>
					<dim>1</dim>
				</port>
			</output>
		</layer>
		<layer id="360" name="__module.model.8.cv1.conv/aten::_convolution/Add" type="Add" version="opset1">
			<data auto_broadcast="numpy" />
			<input>
				<port id="0" precision="FP32">
					<dim>1</dim>
					<dim>256</dim>
					<dim>20</dim>
					<dim>20</dim>
				</port>
				<port id="1" precision="FP32">
					<dim>1</dim>
					<dim>256</dim>
					<dim>1</dim>
					<dim>1</dim>
				</port>
			</input>
			<output>
				<port id="2" precision="FP32" names="385_1">
					<dim>1</dim>
					<dim>256</dim>
…
		<edge from-layer="783" from-port="0" to-layer="787" to-port="1" />
		<edge from-layer="784" from-port="0" to-layer="787" to-port="2" />
		<edge from-layer="785" from-port="0" to-layer="787" to-port="3" />
		<edge from-layer="786" from-port="0" to-layer="787" to-port="4" />
		<edge from-layer="787" from-port="5" to-layer="792" to-port="0" />
		<edge from-layer="788" from-port="0" to-layer="789" to-port="0" />
		<edge from-layer="789" from-port="1" to-layer="791" to-port="0" />
		<edge from-layer="790" from-port="0" to-layer="791" to-port="1" />
		<edge from-layer="791" from-port="2" to-layer="792" to-port="1" />
		<edge from-layer="792" from-port="2" to-layer="795" to-port="0" />
		<edge from-layer="793" from-port="0" to-layer="794" to-port="0" />
		<edge from-layer="794" from-port="1" to-layer="795" to-port="1" />
		<edge from-layer="795" from-port="2" to-layer="796" to-port="0" />
		<edge from-layer="796" from-port="1" to-layer="801" to-port="0" />
		<edge from-layer="797" from-port="0" to-layer="801" to-port="1" />
		<edge from-layer="798" from-port="0" to-layer="801" to-port="2" />
		<edge from-layer="799" from-port="0" to-layer="801" to-port="3" />
		<edge from-layer="800" from-port="0" to-layer="801" to-port="4" />
		<edge from-layer="801" from-port="5" to-layer="802" to-port="1" />
		<edge from-layer="802" from-port="2" to-layer="807" to-port="0" />
		<edge from-layer="803" from-port="0" to-layer="807" to-port="1" />
		<edge from-layer="804" from-port="0" to-layer="807" to-port="2" />
		<edge from-layer="805" from-port="0" to-layer="807" to-port="3" />
		<edge from-layer="806" from-port="0" to-layer="807" to-port="4" />
		<edge from-layer="807" from-port="5" to-layer="808" to-port="2" />
		<edge from-layer="808" from-port="3" to-layer="813" to-port="0" />
		<edge from-layer="809" from-port="0" to-layer="810" to-port="0" />
		<edge from-layer="810" from-port="1" to-layer="812" to-port="0" />
		<edge from-layer="811" from-port="0" to-layer="812" to-port="1" />
		<edge from-layer="812" from-port="2" to-layer="813" to-port="1" />
		<edge from-layer="813" from-port="2" to-layer="816" to-port="0" />
		<edge from-layer="814" from-port="0" to-layer="815" to-port="0" />
		<edge from-layer="815" from-port="1" to-layer="816" to-port="1" />
		<edge from-layer="816" from-port="2" to-layer="817" to-port="0" />
		<edge from-layer="817" from-port="1" to-layer="822" to-port="0" />
		<edge from-layer="818" from-port="0" to-layer="822" to-port="1" />
		<edge from-layer="819" from-port="0" to-layer="822" to-port="2" />
		<edge from-layer="820" from-port="0" to-layer="822" to-port="3" />
		<edge from-layer="821" from-port="0" to-layer="822" to-port="4" />
		<edge from-layer="822" from-port="5" to-layer="930" to-port="0" />
		<edge from-layer="822" from-port="5" to-layer="863" to-port="0" />
		<edge from-layer="822" from-port="5" to-layer="827" to-port="0" />
		<edge from-layer="823" from-port="0" to-layer="824" to-port="0" />
		<edge from-layer="824" from-port="1" to-layer="826" to-port="0" />
		<edge from-layer="825" from-port="0" to-layer="826" to-port="1" />
		<edge from-layer="826" from-port="2" to-layer="827" to-port="1" />
		<edge from-layer="827" from-port="2" to-layer="830" to-port="0" />
		<edge from-layer="828" from-port="0" to-layer="829" to-port="0" />
		<edge from-layer="829" from-port="1" to-layer="830" to-port="1" />
		<edge from-layer="830" from-port="2" to-layer="831" to-port="0" />
		<edge from-layer="831" from-port="1" to-layer="836" to-port="0" />
		<edge from-layer="832" from-port="0" to-layer="836" to-port="1" />
		<edge from-layer="833" from-port="0" to-layer="836" to-port="2" />
		<edge from-layer="834" from-port="0" to-layer="836" to-port="3" />
		<edge from-layer="835" from-port="0" to-layer="836" to-port="4" />
		<edge from-layer="836" from-port="5" to-layer="841" to-port="0" />
		<edge from-layer="837" from-port="0" to-layer="838" to-port="0" />
		<edge from-layer="838" from-port="1" to-layer="840" to-port="0" />
		<edge from-layer="839" from-port="0" to-layer="840" to-port="1" />
		<edge from-layer="840" from-port="2" to-layer="841" to-port="1" />
		<edge from-layer="841" from-port="2" to-layer="844" to-port="0" />
		<edge from-layer="842" from-port="0" to-layer="843" to-port="0" />
		<edge from-layer="843" from-port="1" to-layer="844" to-port="1" />
		<edge from-layer="844" from-port="2" to-layer="845" to-port="0" />
		<edge from-layer="845" from-port="1" to-layer="850" to-port="0" />
		<edge from-layer="846" from-port="0" to-layer="850" to-port="1" />
		<edge from-layer="847" from-port="0" to-layer="850" to-port="2" />
		<edge from-layer="848" from-port="0" to-layer="850" to-port="3" />
		<edge from-layer="849" from-port="0" to-layer="850" to-port="4" />
		<edge from-layer="850" from-port="5" to-layer="855" to-port="0" />
		<edge from-layer="851" from-port="0" to-layer="852" to-port="0" />
		<edge from-layer="852" from-port="1" to-layer="854" to-port="0" />
		<edge from-layer="853" from-port="0" to-layer="854" to-port="1" />
		<edge from-layer="854" from-port="2" to-layer="855" to-port="1" />
		<edge from-layer="855" from-port="2" to-layer="858" to-port="0" />
		<edge from-layer="856" from-port="0" to-layer="857" to-port="0" />
		<edge from-layer="857" from-port="1" to-layer="858" to-port="1" />
		<edge from-layer="858" from-port="2" to-layer="923" to-port="0" />
		<edge from-layer="859" from-port="0" to-layer="860" to-port="0" />
		<edge from-layer="860" from-port="1" to-layer="862" to-port="0" />
		<edge from-layer="861" from-port="0" to-layer="862" to-port="1" />
		<edge from-layer="862" from-port="2" to-layer="863" to-port="1" />
		<edge from-layer="863" from-port="2" to-layer="866" to-port="0" />
		<edge from-layer="864" from-port="0" to-layer="865" to-port="0" />
		<edge from-layer="865" from-port="1" to-layer="866" to-port="1" />
		<edge from-layer="866" from-port="2" to-layer="867" to-port="0" />
		<edge from-layer="867" from-port="1" to-layer="872" to-port="0" />
		<edge from-layer="868" from-port="0" to-layer="872" to-port="1" />
		<edge from-layer="869" from-port="0" to-layer="872" to-port="2" />
		<edge from-layer="870" from-port="0" to-layer="872" to-port="3" />
		<edge from-layer="871" from-port="0" to-layer="872" to-port="4" />
		<edge from-layer="872" from-port="5" to-layer="877" to-port="0" />
		<edge from-layer="873" from-port="0" to-layer="874" to-port="0" />
		<edge from-layer="874" from-port="1" to-layer="876" to-port="0" />
		<edge from-layer="875" from-port="0" to-layer="876" to-port="1" />
		<edge from-layer="876" from-port="2" to-layer="877" to-port="1" />
		<edge from-layer="877" from-port="2" to-layer="880" to-port="0" />
		<edge from-layer="878" from-port="0" to-layer="879" to-port="0" />
		<edge from-layer="879" from-port="1" to-layer="880" to-port="1" />
		<edge from-layer="880" from-port="2" to-layer="881" to-port="0" />
		<edge from-layer="881" from-port="1" to-layer="886" to-port="0" />
		<edge from-layer="882" from-port="0" to-layer="886" to-port="1" />
		<edge from-layer="883" from-port="0" to-layer="886" to-port="2" />
		<edge from-layer="884" from-port="0" to-layer="886" to-port="3" />
		<edge from-layer="885" from-port="0" to-layer="886" to-port="4" />
		<edge from-layer="886" from-port="5" to-layer="891" to-port="0" />
		<edge from-layer="887" from-port="0" to-layer="888" to-port="0" />
		<edge from-layer="888" from-port="1" to-layer="890" to-port="0" />
		<edge from-layer="889" from-port="0" to-layer="890" to-port="1" />
		<edge from-layer="890" from-port="2" to-layer="891" to-port="1" />
		<edge from-layer="891" from-port="2" to-layer="894" to-port="0" />
		<edge from-layer="892" from-port="0" to-layer="893" to-port="0" />
		<edge from-layer="893" from-port="1" to-layer="894" to-port="1" />
		<edge from-layer="894" from-port="2" to-layer="895" to-port="0" />
		<edge from-layer="895" from-port="1" to-layer="900" to-port="0" />
		<edge from-layer="896" from-port="0" to-layer="900" to-port="1" />
		<edge from-layer="897" from-port="0" to-layer="900" to-port="2" />
		<edge from-layer="898" from-port="0" to-layer="900" to-port="3" />
		<edge from-layer="899" from-port="0" to-layer="900" to-port="4" />
		<edge from-layer="900" from-port="5" to-layer="905" to-port="0" />
		<edge from-layer="901" from-port="0" to-layer="902" to-port="0" />
		<edge from-layer="902" from-port="1" to-layer="904" to-port="0" />
		<edge from-layer="903" from-port="0" to-layer="904" to-port="1" />
		<edge from-layer="904" from-port="2" to-layer="905" to-port="1" />
		<edge from-layer="905" from-port="2" to-layer="908" to-port="0" />
		<edge from-layer="906" from-port="0" to-layer="907" to-port="0" />
		<edge from-layer="907" from-port="1" to-layer="908" to-port="1" />
		<edge from-layer="908" from-port="2" to-layer="909" to-port="0" />
		<edge from-layer="909" from-port="1" to-layer="914" to-port="0" />
		<edge from-layer="910" from-port="0" to-layer="914" to-port="1" />
		<edge from-layer="911" from-port="0" to-layer="914" to-port="2" />
		<edge from-layer="912" from-port="0" to-layer="914" to-port="3" />
		<edge from-layer="913" from-port="0" to-layer="914" to-port="4" />
		<edge from-layer="914" from-port="5" to-layer="919" to-port="0" />
		<edge from-layer="915" from-port="0" to-layer="916" to-port="0" />
		<edge from-layer="916" from-port="1" to-layer="918" to-port="0" />
		<edge from-layer="917" from-port="0" to-layer="918" to-port="1" />
		<edge from-layer="918" from-port="2" to-layer="919" to-port="1" />
		<edge from-layer="919" from-port="2" to-layer="922" to-port="0" />
		<edge from-layer="920" from-port="0" to-layer="921" to-port="0" />
		<edge from-layer="921" from-port="1" to-layer="922" to-port="1" />
		<edge from-layer="922" from-port="2" to-layer="923" to-port="1" />
		<edge from-layer="923" from-port="2" to-layer="925" to-port="0" />
		<edge from-layer="924" from-port="0" to-layer="925" to-port="1" />
		<edge from-layer="925" from-port="2" to-layer="1371" to-port="0" />
		<edge from-layer="926" from-port="0" to-layer="927" to-port="0" />
		<edge from-layer="927" from-port="1" to-layer="929" to-port="0" />
		<edge from-layer="928" from-port="0" to-layer="929" to-port="1" />
		<edge from-layer="929" from-port="2" to-layer="930" to-port="1" />
		<edge from-layer="930" from-port="2" to-layer="933" to-port="0" />
		<edge from-layer="931" from-port="0" to-layer="932" to-port="0" />
		<edge from-layer="932" from-port="1" to-layer="933" to-port="1" />
		<edge from-layer="933" from-port="2" to-layer="934" to-port="0" />
		<edge from-layer="934" from-port="1" to-layer="939" to-port="0" />
		<edge from-layer="935" from-port="0" to-layer="939" to-port="1" />
		<edge from-layer="936" from-port="0" to-layer="939" to-port="2" />
		<edge from-layer="937" from-port="0" to-layer="939" to-port="3" />
		<edge from-layer="938" from-port="0" to-layer="939" to-port="4" />
		<edge from-layer="939" from-port="5" to-layer="940" to-port="0" />
		<edge from-layer="940" from-port="2" to-layer="945" to-port="0" />
		<edge from-layer="941" from-port="0" to-layer="942" to-port="0" />
		<edge from-layer="942" from-port="1" to-layer="944" to-port="0" />
		<edge from-layer="943" from-port="0" to-layer="944" to-port="1" />
		<edge from-layer="944" from-port="2" to-layer="945" to-port="1" />
		<edge from-layer="945" from-port="2" to-layer="948" to-port="0" />
		<edge from-layer="946" from-port="0" to-layer="947" to-port="0" />
		<edge from-layer="947" from-port="1" to-layer="948" to-port="1" />
		<edge from-layer="948" from-port="2" to-layer="949" to-port="0" />
		<edge from-layer="949" from-port="1" to-layer="954" to-port="0" />
		<edge from-layer="950" from-port="0" to-layer="954" to-port="1" />
		<edge from-layer="951" from-port="0" to-layer="954" to-port="2" />
		<edge from-layer="952" from-port="0" to-layer="954" to-port="3" />
		<edge from-layer="953" from-port="0" to-layer="954" to-port="4" />
		<edge from-layer="954" from-port="5" to-layer="957" to-port="0" />
		<edge from-layer="955" from-port="0" to-layer="957" to-port="1" />
		<edge from-layer="956" from-port="0" to-layer="957" to-port="2" />
		<edge from-layer="957" from-port="4" to-layer="962" to-port="0" />
		<edge from-layer="957" from-port="4" to-layer="986" to-port="0" />
		<edge from-layer="957" from-port="3" to-layer="992" to-port="0" />
		<edge from-layer="957" from-port="4" to-layer="992" to-port="1" />
		<edge from-layer="958" from-port="0" to-layer="959" to-port="0" />
		<edge from-layer="959" from-port="1" to-layer="961" to-port="0" />
		<edge from-layer="960" from-port="0" to-layer="961" to-port="1" />
		<edge from-layer="961" from-port="2" to-layer="962" to-port="1" />
		<edge from-layer="962" from-port="2" to-layer="965" to-port="0" />
		<edge from-layer="963" from-port="0" to-layer="964" to-port="0" />
		<edge from-layer="964" from-port="1" to-layer="965" to-port="1" />
		<edge from-layer="965" from-port="2" to-layer="966" to-port="0" />
		<edge from-layer="966" from-port="1" to-layer="971" to-port="0" />
		<edge from-layer="967" from-port="0" to-layer="971" to-port="1" />
		<edge from-layer="968" from-port="0" to-layer="971" to-port="2" />
		<edge from-layer="969" from-port="0" to-layer="971" to-port="3" />
		<edge from-layer="970" from-port="0" to-layer="971" to-port="4" />
		<edge from-layer="971" from-port="5" to-layer="976" to-port="0" />
		<edge from-layer="972" from-port="0" to-layer="973" to-port="0" />
		<edge from-layer="973" from-port="1" to-layer="975" to-port="0" />
		<edge from-layer="974" from-port="0" to-layer="975" to-port="1" />
		<edge from-layer="975" from-port="2" to-layer="976" to-port="1" />
		<edge from-layer="976" from-port="2" to-layer="979" to-port="0" />
		<edge from-layer="977" from-port="0" to-layer="978" to-port="0" />
		<edge from-layer="978" from-port="1" to-layer="979" to-port="1" />
		<edge from-layer="979" from-port="2" to-layer="980" to-port="0" />
		<edge from-layer="980" from-port="1" to-layer="985" to-port="0" />
		<edge from-layer="981" from-port="0" to-layer="985" to-port="1" />
		<edge from-layer="982" from-port="0" to-layer="985" to-port="2" />
		<edge from-layer="983" from-port="0" to-layer="985" to-port="3" />
		<edge from-layer="984" from-port="0" to-layer="985" to-port="4" />
		<edge from-layer="985" from-port="5" to-layer="986" to-port="1" />
		<edge from-layer="986" from-port="2" to-layer="991" to-port="0" />
		<edge from-layer="987" from-port="0" to-layer="991" to-port="1" />
		<edge from-layer="988" from-port="0" to-layer="991" to-port="2" />
		<edge from-layer="989" from-port="0" to-layer="991" to-port="3" />
		<edge from-layer="990" from-port="0" to-layer="991" to-port="4" />
		<edge from-layer="991" from-port="5" to-layer="992" to-port="2" />
		<edge from-layer="992" from-port="3" to-layer="997" to-port="0" />
		<edge from-layer="993" from-port="0" to-layer="994" to-port="0" />
		<edge from-layer="994" from-port="1" to-layer="996" to-port="0" />
		<edge from-layer="995" from-port="0" to-layer="996" to-port="1" />
		<edge from-layer="996" from-port="2" to-layer="997" to-port="1" />
		<edge from-layer="997" from-port="2" to-layer="1000" to-port="0" />
		<edge from-layer="998" from-port="0" to-layer="999" to-port="0" />
		<edge from-layer="999" from-port="1" to-layer="1000" to-port="1" />
		<edge from-layer="1000" from-port="2" to-layer="1001" to-port="0" />
		<edge from-layer="1001" from-port="1" to-layer="1006" to-port="0" />
		<edge from-layer="1002" from-port="0" to-layer="1006" to-port="1" />
		<edge from-layer="1003" from-port="0" to-layer="1006" to-port="2" />
		<edge from-layer="1004" from-port="0" to-layer="1006" to-port="3" />
		<edge from-layer="1005" from-port="0" to-layer="1006" to-port="4" />
		<edge from-layer="1006" from-port="5" to-layer="1114" to-port="0" />
		<edge from-layer="1006" from-port="5" to-layer="1047" to-port="0" />
		<edge from-layer="1006" from-port="5" to-layer="1011" to-port="0" />
		<edge from-layer="1007" from-port="0" to-layer="1008" to-port="0" />
		<edge from-layer="1008" from-port="1" to-layer="1010" to-port="0" />
		<edge from-layer="1009" from-port="0" to-layer="1010" to-port="1" />
		<edge from-layer="1010" from-port="2" to-layer="1011" to-port="1" />
		<edge from-layer="1011" from-port="2" to-layer="1014" to-port="0" />
		<edge from-layer="1012" from-port="0" to-layer="1013" to-port="0" />
		<edge from-layer="1013" from-port="1" to-layer="1014" to-port="1" />
		<edge from-layer="1014" from-port="2" to-layer="1015" to-port="0" />
		<edge from-layer="1015" from-port="1" to-layer="1020" to-port="0" />
		<edge from-layer="1016" from-port="0" to-layer="1020" to-port="1" />
		<edge from-layer="1017" from-port="0" to-layer="1020" to-port="2" />
		<edge from-layer="1018" from-port="0" to-layer="1020" to-port="3" />
		<edge from-layer="1019" from-port="0" to-layer="1020" to-port="4" />
		<edge from-layer="1020" from-port="5" to-layer="1025" to-port="0" />
		<edge from-layer="1021" from-port="0" to-layer="1022" to-port="0" />
		<edge from-layer="1022" from-port="1" to-layer="1024" to-port="0" />
		<edge from-layer="1023" from-port="0" to-layer="1024" to-port="1" />
		<edge from-layer="1024" from-port="2" to-layer="1025" to-port="1" />
		<edge from-layer="1025" from-port="2" to-layer="1028" to-port="0" />
		<edge from-layer="1026" from-port="0" to-layer="1027" to-port="0" />
		<edge from-layer="1027" from-port="1" to-layer="1028" to-port="1" />
		<edge from-layer="1028" from-port="2" to-layer="1029" to-port="0" />
		<edge from-layer="1029" from-port="1" to-layer="1034" to-port="0" />
		<edge from-layer="1030" from-port="0" to-layer="1034" to-port="1" />
		<edge from-layer="1031" from-port="0" to-layer="1034" to-port="2" />
		<edge from-layer="1032" from-port="0" to-layer="1034" to-port="3" />
		<edge from-layer="1033" from-port="0" to-layer="1034" to-port="4" />
		<edge from-layer="1034" from-port="5" to-layer="1039" to-port="0" />
		<edge from-layer="1035" from-port="0" to-layer="1036" to-port="0" />
		<edge from-layer="1036" from-port="1" to-layer="1038" to-port="0" />
		<edge from-layer="1037" from-port="0" to-layer="1038" to-port="1" />
		<edge from-layer="1038" from-port="2" to-layer="1039" to-port="1" />
		<edge from-layer="1039" from-port="2" to-layer="1042" to-port="0" />
		<edge from-layer="1040" from-port="0" to-layer="1041" to-port="0" />
		<edge from-layer="1041" from-port="1" to-layer="1042" to-port="1" />
		<edge from-layer="1042" from-port="2" to-layer="1107" to-port="0" />
		<edge from-layer="1043" from-port="0" to-layer="1044" to-port="0" />
		<edge from-layer="1044" from-port="1" to-layer="1046" to-port="0" />
		<edge from-layer="1045" from-port="0" to-layer="1046" to-port="1" />
		<edge from-layer="1046" from-port="2" to-layer="1047" to-port="1" />
		<edge from-layer="1047" from-port="2" to-layer="1050" to-port="0" />
		<edge from-layer="1048" from-port="0" to-layer="1049" to-port="0" />
		<edge from-layer="1049" from-port="1" to-layer="1050" to-port="1" />
		<edge from-layer="1050" from-port="2" to-layer="1051" to-port="0" />
		<edge from-layer="1051" from-port="1" to-layer="1056" to-port="0" />
		<edge from-layer="1052" from-port="0" to-layer="1056" to-port="1" />
		<edge from-layer="1053" from-port="0" to-layer="1056" to-port="2" />
		<edge from-layer="1054" from-port="0" to-layer="1056" to-port="3" />
		<edge from-layer="1055" from-port="0" to-layer="1056" to-port="4" />
		<edge from-layer="1056" from-port="5" to-layer="1061" to-port="0" />
		<edge from-layer="1057" from-port="0" to-layer="1058" to-port="0" />
		<edge from-layer="1058" from-port="1" to-layer="1060" to-port="0" />
		<edge from-layer="1059" from-port="0" to-layer="1060" to-port="1" />
		<edge from-layer="1060" from-port="2" to-layer="1061" to-port="1" />
		<edge from-layer="1061" from-port="2" to-layer="1064" to-port="0" />
		<edge from-layer="1062" from-port="0" to-layer="1063" to-port="0" />
		<edge from-layer="1063" from-port="1" to-layer="1064" to-port="1" />
		<edge from-layer="1064" from-port="2" to-layer="1065" to-port="0" />
		<edge from-layer="1065" from-port="1" to-layer="1070" to-port="0" />
		<edge from-layer="1066" from-port="0" to-layer="1070" to-port="1" />
		<edge from-layer="1067" from-port="0" to-layer="1070" to-port="2" />
		<edge from-layer="1068" from-port="0" to-layer="1070" to-port="3" />
		<edge from-layer="1069" from-port="0" to-layer="1070" to-port="4" />
		<edge from-layer="1070" from-port="5" to-layer="1075" to-port="0" />
		<edge from-layer="1071" from-port="0" to-layer="1072" to-port="0" />
		<edge from-layer="1072" from-port="1" to-layer="1074" to-port="0" />
		<edge from-layer="1073" from-port="0" to-layer="1074" to-port="1" />
		<edge from-layer="1074" from-port="2" to-layer="1075" to-port="1" />
		<edge from-layer="1075" from-port="2" to-layer="1078" to-port="0" />
		<edge from-layer="1076" from-port="0" to-layer="1077" to-port="0" />
		<edge from-layer="1077" from-port="1" to-layer="1078" to-port="1" />
		<edge from-layer="1078" from-port="2" to-layer="1079" to-port="0" />
		<edge from-layer="1079" from-port="1" to-layer="1084" to-port="0" />
		<edge from-layer="1080" from-port="0" to-layer="1084" to-port="1" />
		<edge from-layer="1081" from-port="0" to-layer="1084" to-port="2" />
		<edge from-layer="1082" from-port="0" to-layer="1084" to-port="3" />
		<edge from-layer="1083" from-port="0" to-layer="1084" to-port="4" />
		<edge from-layer="1084" from-port="5" to-layer="1089" to-port="0" />
		<edge from-layer="1085" from-port="0" to-layer="1086" to-port="0" />
		<edge from-layer="1086" from-port="1" to-layer="1088" to-port="0" />
		<edge from-layer="1087" from-port="0" to-layer="1088" to-port="1" />
		<edge from-layer="1088" from-port="2" to-layer="1089" to-port="1" />
		<edge from-layer="1089" from-port="2" to-layer="1092" to-port="0" />
		<edge from-layer="1090" from-port="0" to-layer="1091" to-port="0" />
		<edge from-layer="1091" from-port="1" to-layer="1092" to-port="1" />
		<edge from-layer="1092" from-port="2" to-layer="1093" to-port="0" />
		<edge from-layer="1093" from-port="1" to-layer="1098" to-port="0" />
		<edge from-layer="1094" from-port="0" to-layer="1098" to-port="1" />
		<edge from-layer="1095" from-port="0" to-layer="1098" to-port="2" />
		<edge from-layer="1096" from-port="0" to-layer="1098" to-port="3" />
		<edge from-layer="1097" from-port="0" to-layer="1098" to-port="4" />
		<edge from-layer="1098" from-port="5" to-layer="1103" to-port="0" />
		<edge from-layer="1099" from-port="0" to-layer="1100" to-port="0" />
		<edge from-layer="1100" from-port="1" to-layer="1102" to-port="0" />
		<edge from-layer="1101" from-port="0" to-layer="1102" to-port="1" />
		<edge from-layer="1102" from-port="2" to-layer="1103" to-port="1" />
		<edge from-layer="1103" from-port="2" to-layer="1106" to-port="0" />
		<edge from-layer="1104" from-port="0" to-layer="1105" to-port="0" />
		<edge from-layer="1105" from-port="1" to-layer="1106" to-port="1" />
		<edge from-layer="1106" from-port="2" to-layer="1107" to-port="1" />
		<edge from-layer="1107" from-port="2" to-layer="1109" to-port="0" />
		<edge from-layer="1108" from-port="0" to-layer="1109" to-port="1" />
		<edge from-layer="1109" from-port="2" to-layer="1371" to-port="1" />
		<edge from-layer="1110" from-port="0" to-layer="1111" to-port="0" />
		<edge from-layer="1111" from-port="1" to-layer="1113" to-port="0" />
		<edge from-layer="1112" from-port="0" to-layer="1113" to-port="1" />
		<edge from-layer="1113" from-port="2" to-layer="1114" to-port="1" />
		<edge from-layer="1114" from-port="2" to-layer="1117" to-port="0" />
		<edge from-layer="1115" from-port="0" to-layer="1116" to-port="0" />
		<edge from-layer="1116" from-port="1" to-layer="1117" to-port="1" />
		<edge from-layer="1117" from-port="2" to-layer="1118" to-port="0" />
		<edge from-layer="1118" from-port="1" to-layer="1123" to-port="0" />
		<edge from-layer="1119" from-port="0" to-layer="1123" to-port="1" />
		<edge from-layer="1120" from-port="0" to-layer="1123" to-port="2" />
		<edge from-layer="1121" from-port="0" to-layer="1123" to-port="3" />
		<edge from-layer="1122" from-port="0" to-layer="1123" to-port="4" />
		<edge from-layer="1123" from-port="5" to-layer="1124" to-port="0" />
		<edge from-layer="1124" from-port="2" to-layer="1129" to-port="0" />
		<edge from-layer="1125" from-port="0" to-layer="1126" to-port="0" />
		<edge from-layer="1126" from-port="1" to-layer="1128" to-port="0" />
		<edge from-layer="1127" from-port="0" to-layer="1128" to-port="1" />
		<edge from-layer="1128" from-port="2" to-layer="1129" to-port="1" />
		<edge from-layer="1129" from-port="2" to-layer="1132" to-port="0" />
		<edge from-layer="1130" from-port="0" to-layer="1131" to-port="0" />
		<edge from-layer="1131" from-port="1" to-layer="1132" to-port="1" />
		<edge from-layer="1132" from-port="2" to-layer="1133" to-port="0" />
		<edge from-layer="1133" from-port="1" to-layer="1138" to-port="0" />
		<edge from-layer="1134" from-port="0" to-layer="1138" to-port="1" />
		<edge from-layer="1135" from-port="0" to-layer="1138" to-port="2" />
		<edge from-layer="1136" from-port="0" to-layer="1138" to-port="3" />
		<edge from-layer="1137" from-port="0" to-layer="1138" to-port="4" />
		<edge from-layer="1138" from-port="5" to-layer="1141" to-port="0" />
		<edge from-layer="1139" from-port="0" to-layer="1141" to-port="1" />
		<edge from-layer="1140" from-port="0" to-layer="1141" to-port="2" />
		<edge from-layer="1141" from-port="4" to-layer="1146" to-port="0" />
		<edge from-layer="1141" from-port="4" to-layer="1253" to-port="1" />
		<edge from-layer="1141" from-port="3" to-layer="1253" to-port="0" />
		<edge from-layer="1141" from-port="4" to-layer="1228" to-port="0" />
		<edge from-layer="1142" from-port="0" to-layer="1143" to-port="0" />
		<edge from-layer="1143" from-port="1" to-layer="1145" to-port="0" />
		<edge from-layer="1144" from-port="0" to-layer="1145" to-port="1" />
		<edge from-layer="1145" from-port="2" to-layer="1146" to-port="1" />
		<edge from-layer="1146" from-port="2" to-layer="1149" to-port="0" />
		<edge from-layer="1147" from-port="0" to-layer="1148" to-port="0" />
		<edge from-layer="1148" from-port="1" to-layer="1149" to-port="1" />
		<edge from-layer="1149" from-port="2" to-layer="1150" to-port="0" />
		<edge from-layer="1150" from-port="1" to-layer="1155" to-port="0" />
		<edge from-layer="1151" from-port="0" to-layer="1155" to-port="1" />
		<edge from-layer="1152" from-port="0" to-layer="1155" to-port="2" />
		<edge from-layer="1153" from-port="0" to-layer="1155" to-port="3" />
		<edge from-layer="1154" from-port="0" to-layer="1155" to-port="4" />
		<edge from-layer="1155" from-port="5" to-layer="1184" to-port="0" />
		<edge from-layer="1155" from-port="5" to-layer="1160" to-port="0" />
		<edge from-layer="1156" from-port="0" to-layer="1157" to-port="0" />
		<edge from-layer="1157" from-port="1" to-layer="1159" to-port="0" />
		<edge from-layer="1158" from-port="0" to-layer="1159" to-port="1" />
		<edge from-layer="1159" from-port="2" to-layer="1160" to-port="1" />
		<edge from-layer="1160" from-port="2" to-layer="1163" to-port="0" />
		<edge from-layer="1161" from-port="0" to-layer="1162" to-port="0" />
		<edge from-layer="1162" from-port="1" to-layer="1163" to-port="1" />
		<edge from-layer="1163" from-port="2" to-layer="1164" to-port="0" />
		<edge from-layer="1164" from-port="1" to-layer="1169" to-port="0" />
		<edge from-layer="1165" from-port="0" to-layer="1169" to-port="1" />
		<edge from-layer="1166" from-port="0" to-layer="1169" to-port="2" />
		<edge from-layer="1167" from-port="0" to-layer="1169" to-port="3" />
		<edge from-layer="1168" from-port="0" to-layer="1169" to-port="4" />
		<edge from-layer="1169" from-port="5" to-layer="1174" to-port="0" />
		<edge from-layer="1170" from-port="0" to-layer="1171" to-port="0" />
		<edge from-layer="1171" from-port="1" to-layer="1173" to-port="0" />
		<edge from-layer="1172" from-port="0" to-layer="1173" to-port="1" />
		<edge from-layer="1173" from-port="2" to-layer="1174" to-port="1" />
		<edge from-layer="1174" from-port="2" to-layer="1177" to-port="0" />
		<edge from-layer="1175" from-port="0" to-layer="1176" to-port="0" />
		<edge from-layer="1176" from-port="1" to-layer="1177" to-port="1" />
		<edge from-layer="1177" from-port="2" to-layer="1178" to-port="0" />
		<edge from-layer="1178" from-port="1" to-layer="1183" to-port="0" />
		<edge from-layer="1179" from-port="0" to-layer="1183" to-port="1" />
		<edge from-layer="1180" from-port="0" to-layer="1183" to-port="2" />
		<edge from-layer="1181" from-port="0" to-layer="1183" to-port="3" />
		<edge from-layer="1182" from-port="0" to-layer="1183" to-port="4" />
		<edge from-layer="1183" from-port="5" to-layer="1184" to-port="1" />
		<edge from-layer="1184" from-port="2" to-layer="1189" to-port="0" />
		<edge from-layer="1185" from-port="0" to-layer="1189" to-port="1" />
		<edge from-layer="1186" from-port="0" to-layer="1189" to-port="2" />
		<edge from-layer="1187" from-port="0" to-layer="1189" to-port="3" />
		<edge from-layer="1188" from-port="0" to-layer="1189" to-port="4" />
		<edge from-layer="1189" from-port="5" to-layer="1194" to-port="0" />
		<edge from-layer="1189" from-port="5" to-layer="1218" to-port="0" />
		<edge from-layer="1190" from-port="0" to-layer="1191" to-port="0" />
		<edge from-layer="1191" from-port="1" to-layer="1193" to-port="0" />
		<edge from-layer="1192" from-port="0" to-layer="1193" to-port="1" />
		<edge from-layer="1193" from-port="2" to-layer="1194" to-port="1" />
		<edge from-layer="1194" from-port="2" to-layer="1197" to-port="0" />
		<edge from-layer="1195" from-port="0" to-layer="1196" to-port="0" />
		<edge from-layer="1196" from-port="1" to-layer="1197" to-port="1" />
		<edge from-layer="1197" from-port="2" to-layer="1198" to-port="0" />
		<edge from-layer="1198" from-port="1" to-layer="1203" to-port="0" />
		<edge from-layer="1199" from-port="0" to-layer="1203" to-port="1" />
		<edge from-layer="1200" from-port="0" to-layer="1203" to-port="2" />
		<edge from-layer="1201" from-port="0" to-layer="1203" to-port="3" />
		<edge from-layer="1202" from-port="0" to-layer="1203" to-port="4" />
		<edge from-layer="1203" from-port="5" to-layer="1208" to-port="0" />
		<edge from-layer="1204" from-port="0" to-layer="1205" to-port="0" />
		<edge from-layer="1205" from-port="1" to-layer="1207" to-port="0" />
		<edge from-layer="1206" from-port="0" to-layer="1207" to-port="1" />
		<edge from-layer="1207" from-port="2" to-layer="1208" to-port="1" />
		<edge from-layer="1208" from-port="2" to-layer="1211" to-port="0" />
		<edge from-layer="1209" from-port="0" to-layer="1210" to-port="0" />
		<edge from-layer="1210" from-port="1" to-layer="1211" to-port="1" />
		<edge from-layer="1211" from-port="2" to-layer="1212" to-port="0" />
		<edge from-layer="1212" from-port="1" to-layer="1217" to-port="0" />
		<edge from-layer="1213" from-port="0" to-layer="1217" to-port="1" />
		<edge from-layer="1214" from-port="0" to-layer="1217" to-port="2" />
		<edge from-layer="1215" from-port="0" to-layer="1217" to-port="3" />
		<edge from-layer="1216" from-port="0" to-layer="1217" to-port="4" />
		<edge from-layer="1217" from-port="5" to-layer="1218" to-port="1" />
		<edge from-layer="1218" from-port="2" to-layer="1223" to-port="0" />
		<edge from-layer="1219" from-port="0" to-layer="1223" to-port="1" />
		<edge from-layer="1220" from-port="0" to-layer="1223" to-port="2" />
		<edge from-layer="1221" from-port="0" to-layer="1223" to-port="3" />
		<edge from-layer="1222" from-port="0" to-layer="1223" to-port="4" />
		<edge from-layer="1223" from-port="5" to-layer="1238" to-port="0" />
		<edge from-layer="1224" from-port="0" to-layer="1225" to-port="0" />
		<edge from-layer="1225" from-port="1" to-layer="1227" to-port="0" />
		<edge from-layer="1226" from-port="0" to-layer="1227" to-port="1" />
		<edge from-layer="1227" from-port="2" to-layer="1228" to-port="1" />
		<edge from-layer="1228" from-port="2" to-layer="1231" to-port="0" />
		<edge from-layer="1229" from-port="0" to-layer="1230" to-port="0" />
		<edge from-layer="1230" from-port="1" to-layer="1231" to-port="1" />
		<edge from-layer="1231" from-port="2" to-layer="1232" to-port="0" />
		<edge from-layer="1232" from-port="1" to-layer="1237" to-port="0" />
		<edge from-layer="1233" from-port="0" to-layer="1237" to-port="1" />
		<edge from-layer="1234" from-port="0" to-layer="1237" to-port="2" />
		<edge from-layer="1235" from-port="0" to-layer="1237" to-port="3" />
		<edge from-layer="1236" from-port="0" to-layer="1237" to-port="4" />
		<edge from-layer="1237" from-port="5" to-layer="1238" to-port="1" />
		<edge from-layer="1238" from-port="2" to-layer="1243" to-port="0" />
		<edge from-layer="1239" from-port="0" to-layer="1240" to-port="0" />
		<edge from-layer="1240" from-port="1" to-layer="1242" to-port="0" />
		<edge from-layer="1241" from-port="0" to-layer="1242" to-port="1" />
		<edge from-layer="1242" from-port="2" to-layer="1243" to-port="1" />
		<edge from-layer="1243" from-port="2" to-layer="1246" to-port="0" />
		<edge from-layer="1244" from-port="0" to-layer="1245" to-port="0" />
		<edge from-layer="1245" from-port="1" to-layer="1246" to-port="1" />
		<edge from-layer="1246" from-port="2" to-layer="1247" to-port="0" />
		<edge from-layer="1247" from-port="1" to-layer="1252" to-port="0" />
		<edge from-layer="1248" from-port="0" to-layer="1252" to-port="1" />
		<edge from-layer="1249" from-port="0" to-layer="1252" to-port="2" />
		<edge from-layer="1250" from-port="0" to-layer="1252" to-port="3" />
		<edge from-layer="1251" from-port="0" to-layer="1252" to-port="4" />
		<edge from-layer="1252" from-port="5" to-layer="1253" to-port="2" />
		<edge from-layer="1253" from-port="3" to-layer="1258" to-port="0" />
		<edge from-layer="1254" from-port="0" to-layer="1255" to-port="0" />
		<edge from-layer="1255" from-port="1" to-layer="1257" to-port="0" />
		<edge from-layer="1256" from-port="0" to-layer="1257" to-port="1" />
		<edge from-layer="1257" from-port="2" to-layer="1258" to-port="1" />
		<edge from-layer="1258" from-port="2" to-layer="1261" to-port="0" />
		<edge from-layer="1259" from-port="0" to-layer="1260" to-port="0" />
		<edge from-layer="1260" from-port="1" to-layer="1261" to-port="1" />
		<edge from-layer="1261" from-port="2" to-layer="1262" to-port="0" />
		<edge from-layer="1262" from-port="1" to-layer="1267" to-port="0" />
		<edge from-layer="1263" from-port="0" to-layer="1267" to-port="1" />
		<edge from-layer="1264" from-port="0" to-layer="1267" to-port="2" />
		<edge from-layer="1265" from-port="0" to-layer="1267" to-port="3" />
		<edge from-layer="1266" from-port="0" to-layer="1267" to-port="4" />
		<edge from-layer="1267" from-port="5" to-layer="1308" to-port="0" />
		<edge from-layer="1267" from-port="5" to-layer="1272" to-port="0" />
		<edge from-layer="1268" from-port="0" to-layer="1269" to-port="0" />
		<edge from-layer="1269" from-port="1" to-layer="1271" to-port="0" />
		<edge from-layer="1270" from-port="0" to-layer="1271" to-port="1" />
		<edge from-layer="1271" from-port="2" to-layer="1272" to-port="1" />
		<edge from-layer="1272" from-port="2" to-layer="1275" to-port="0" />
		<edge from-layer="1273" from-port="0" to-layer="1274" to-port="0" />
		<edge from-layer="1274" from-port="1" to-layer="1275" to-port="1" />
		<edge from-layer="1275" from-port="2" to-layer="1276" to-port="0" />
		<edge from-layer="1276" from-port="1" to-layer="1281" to-port="0" />
		<edge from-layer="1277" from-port="0" to-layer="1281" to-port="1" />
		<edge from-layer="1278" from-port="0" to-layer="1281" to-port="2" />
		<edge from-layer="1279" from-port="0" to-layer="1281" to-port="3" />
		<edge from-layer="1280" from-port="0" to-layer="1281" to-port="4" />
		<edge from-layer="1281" from-port="5" to-layer="1286" to-port="0" />
		<edge from-layer="1282" from-port="0" to-layer="1283" to-port="0" />
		<edge from-layer="1283" from-port="1" to-layer="1285" to-port="0" />
		<edge from-layer="1284" from-port="0" to-layer="1285" to-port="1" />
		<edge from-layer="1285" from-port="2" to-layer="1286" to-port="1" />
		<edge from-layer="1286" from-port="2" to-layer="1289" to-port="0" />
		<edge from-layer="1287" from-port="0" to-layer="1288" to-port="0" />
		<edge from-layer="1288" from-port="1" to-layer="1289" to-port="1" />
		<edge from-layer="1289" from-port="2" to-layer="1290" to-port="0" />
		<edge from-layer="1290" from-port="1" to-layer="1295" to-port="0" />
		<edge from-layer="1291" from-port="0" to-layer="1295" to-port="1" />
		<edge from-layer="1292" from-port="0" to-layer="1295" to-port="2" />
		<edge from-layer="1293" from-port="0" to-layer="1295" to-port="3" />
		<edge from-layer="1294" from-port="0" to-layer="1295" to-port="4" />
		<edge from-layer="1295" from-port="5" to-layer="1300" to-port="0" />
		<edge from-layer="1296" from-port="0" to-layer="1297" to-port="0" />
		<edge from-layer="1297" from-port="1" to-layer="1299" to-port="0" />
		<edge from-layer="1298" from-port="0" to-layer="1299" to-port="1" />
		<edge from-layer="1299" from-port="2" to-layer="1300" to-port="1" />
		<edge from-layer="1300" from-port="2" to-layer="1303" to-port="0" />
		<edge from-layer="1301" from-port="0" to-layer="1302" to-port="0" />
		<edge from-layer="1302" from-port="1" to-layer="1303" to-port="1" />
		<edge from-layer="1303" from-port="2" to-layer="1368" to-port="0" />
		<edge from-layer="1304" from-port="0" to-layer="1305" to-port="0" />
		<edge from-layer="1305" from-port="1" to-layer="1307" to-port="0" />
		<edge from-layer="1306" from-port="0" to-layer="1307" to-port="1" />
		<edge from-layer="1307" from-port="2" to-layer="1308" to-port="1" />
		<edge from-layer="1308" from-port="2" to-layer="1311" to-port="0" />
		<edge from-layer="1309" from-port="0" to-layer="1310" to-port="0" />
		<edge from-layer="1310" from-port="1" to-layer="1311" to-port="1" />
		<edge from-layer="1311" from-port="2" to-layer="1312" to-port="0" />
		<edge from-layer="1312" from-port="1" to-layer="1317" to-port="0" />
		<edge from-layer="1313" from-port="0" to-layer="1317" to-port="1" />
		<edge from-layer="1314" from-port="0" to-layer="1317" to-port="2" />
		<edge from-layer="1315" from-port="0" to-layer="1317" to-port="3" />
		<edge from-layer="1316" from-port="0" to-layer="1317" to-port="4" />
		<edge from-layer="1317" from-port="5" to-layer="1322" to-port="0" />
		<edge from-layer="1318" from-port="0" to-layer="1319" to-port="0" />
		<edge from-layer="1319" from-port="1" to-layer="1321" to-port="0" />
		<edge from-layer="1320" from-port="0" to-layer="1321" to-port="1" />
		<edge from-layer="1321" from-port="2" to-layer="1322" to-port="1" />
		<edge from-layer="1322" from-port="2" to-layer="1325" to-port="0" />
		<edge from-layer="1323" from-port="0" to-layer="1324" to-port="0" />
		<edge from-layer="1324" from-port="1" to-layer="1325" to-port="1" />
		<edge from-layer="1325" from-port="2" to-layer="1326" to-port="0" />
		<edge from-layer="1326" from-port="1" to-layer="1331" to-port="0" />
		<edge from-layer="1327" from-port="0" to-layer="1331" to-port="1" />
		<edge from-layer="1328" from-port="0" to-layer="1331" to-port="2" />
		<edge from-layer="1329" from-port="0" to-layer="1331" to-port="3" />
		<edge from-layer="1330" from-port="0" to-layer="1331" to-port="4" />
		<edge from-layer="1331" from-port="5" to-layer="1336" to-port="0" />
		<edge from-layer="1332" from-port="0" to-layer="1333" to-port="0" />
		<edge from-layer="1333" from-port="1" to-layer="1335" to-port="0" />
		<edge from-layer="1334" from-port="0" to-layer="1335" to-port="1" />
		<edge from-layer="1335" from-port="2" to-layer="1336" to-port="1" />
		<edge from-layer="1336" from-port="2" to-layer="1339" to-port="0" />
		<edge from-layer="1337" from-port="0" to-layer="1338" to-port="0" />
		<edge from-layer="1338" from-port="1" to-layer="1339" to-port="1" />
		<edge from-layer="1339" from-port="2" to-layer="1340" to-port="0" />
		<edge from-layer="1340" from-port="1" to-layer="1345" to-port="0" />
		<edge from-layer="1341" from-port="0" to-layer="1345" to-port="1" />
		<edge from-layer="1342" from-port="0" to-layer="1345" to-port="2" />
		<edge from-layer="1343" from-port="0" to-layer="1345" to-port="3" />
		<edge from-layer="1344" from-port="0" to-layer="1345" to-port="4" />
		<edge from-layer="1345" from-port="5" to-layer="1350" to-port="0" />
		<edge from-layer="1346" from-port="0" to-layer="1347" to-port="0" />
		<edge from-layer="1347" from-port="1" to-layer="1349" to-port="0" />
		<edge from-layer="1348" from-port="0" to-layer="1349" to-port="1" />
		<edge from-layer="1349" from-port="2" to-layer="1350" to-port="1" />
		<edge from-layer="1350" from-port="2" to-layer="1353" to-port="0" />
		<edge from-layer="1351" from-port="0" to-layer="1352" to-port="0" />
		<edge from-layer="1352" from-port="1" to-layer="1353" to-port="1" />
		<edge from-layer="1353" from-port="2" to-layer="1354" to-port="0" />
		<edge from-layer="1354" from-port="1" to-layer="1359" to-port="0" />
		<edge from-layer="1355" from-port="0" to-layer="1359" to-port="1" />
		<edge from-layer="1356" from-port="0" to-layer="1359" to-port="2" />
		<edge from-layer="1357" from-port="0" to-layer="1359" to-port="3" />
		<edge from-layer="1358" from-port="0" to-layer="1359" to-port="4" />
		<edge from-layer="1359" from-port="5" to-layer="1364" to-port="0" />
		<edge from-layer="1360" from-port="0" to-layer="1361" to-port="0" />
		<edge from-layer="1361" from-port="1" to-layer="1363" to-port="0" />
		<edge from-layer="1362" from-port="0" to-layer="1363" to-port="1" />
		<edge from-layer="1363" from-port="2" to-layer="1364" to-port="1" />
		<edge from-layer="1364" from-port="2" to-layer="1367" to-port="0" />
		<edge from-layer="1365" from-port="0" to-layer="1366" to-port="0" />
		<edge from-layer="1366" from-port="1" to-layer="1367" to-port="1" />
		<edge from-layer="1367" from-port="2" to-layer="1368" to-port="1" />
		<edge from-layer="1368" from-port="2" to-layer="1370" to-port="0" />
		<edge from-layer="1369" from-port="0" to-layer="1370" to-port="1" />
		<edge from-layer="1370" from-port="2" to-layer="1371" to-port="2" />
		<edge from-layer="1371" from-port="3" to-layer="1374" to-port="0" />
		<edge from-layer="1372" from-port="0" to-layer="1374" to-port="1" />
		<edge from-layer="1372" from-port="0" to-layer="1417" to-port="1" />
		<edge from-layer="1372" from-port="0" to-layer="1408" to-port="1" />
		<edge from-layer="1373" from-port="0" to-layer="1374" to-port="2" />
		<edge from-layer="1374" from-port="4" to-layer="1449" to-port="0" />
		<edge from-layer="1374" from-port="3" to-layer="1401" to-port="0" />
		<edge from-layer="1374" from-port="3" to-layer="1376" to-port="0" />
		<edge from-layer="1375" from-port="0" to-layer="1376" to-port="1" />
		<edge from-layer="1376" from-port="2" to-layer="1378" to-port="0" />
		<edge from-layer="1377" from-port="0" to-layer="1378" to-port="1" />
		<edge from-layer="1378" from-port="2" to-layer="1379" to-port="0" />
		<edge from-layer="1379" from-port="1" to-layer="1384" to-port="0" />
		<edge from-layer="1380" from-port="0" to-layer="1384" to-port="1" />
		<edge from-layer="1381" from-port="0" to-layer="1384" to-port="2" />
		<edge from-layer="1382" from-port="0" to-layer="1384" to-port="3" />
		<edge from-layer="1383" from-port="0" to-layer="1384" to-port="4" />
		<edge from-layer="1384" from-port="5" to-layer="1389" to-port="0" />
		<edge from-layer="1385" from-port="0" to-layer="1386" to-port="0" />
		<edge from-layer="1386" from-port="1" to-layer="1388" to-port="0" />
		<edge from-layer="1387" from-port="0" to-layer="1388" to-port="1" />
		<edge from-layer="1388" from-port="2" to-layer="1389" to-port="1" />
		<edge from-layer="1389" from-port="2" to-layer="1394" to-port="0" />
		<edge from-layer="1390" from-port="0" to-layer="1394" to-port="1" />
		<edge from-layer="1391" from-port="0" to-layer="1394" to-port="2" />
		<edge from-layer="1392" from-port="0" to-layer="1394" to-port="3" />
		<edge from-layer="1393" from-port="0" to-layer="1394" to-port="4" />
		<edge from-layer="1394" from-port="5" to-layer="1396" to-port="0" />
		<edge from-layer="1395" from-port="0" to-layer="1396" to-port="1" />
		<edge from-layer="1396" from-port="2" to-layer="1417" to-port="0" />
		<edge from-layer="1397" from-port="0" to-layer="1399" to-port="1" />
		<edge from-layer="1398" from-port="0" to-layer="1399" to-port="2" />
		<edge from-layer="1399" from-port="3" to-layer="1405" to-port="0" />
		<edge from-layer="1400" from-port="0" to-layer="1405" to-port="1" />
		<edge from-layer="1401" from-port="1" to-layer="1404" to-port="0" />
		<edge from-layer="1402" from-port="0" to-layer="1404" to-port="1" />
		<edge from-layer="1403" from-port="0" to-layer="1404" to-port="2" />
		<edge from-layer="1404" from-port="3" to-layer="1405" to-port="2" />
		<edge from-layer="1405" from-port="3" to-layer="1406" to-port="0" />
		<edge from-layer="1406" from-port="1" to-layer="1408" to-port="0" />
		<edge from-layer="1407" from-port="0" to-layer="1408" to-port="2" />
		<edge from-layer="1407" from-port="0" to-layer="1412" to-port="1" />
		<edge from-layer="1408" from-port="3" to-layer="1411" to-port="0" />
		<edge from-layer="1408" from-port="3" to-layer="1410" to-port="0" />
		<edge from-layer="1409" from-port="0" to-layer="1411" to-port="1" />
		<edge from-layer="1409" from-port="0" to-layer="1410" to-port="1" />
		<edge from-layer="1410" from-port="2" to-layer="1414" to-port="0" />
		<edge from-layer="1411" from-port="2" to-layer="1412" to-port="0" />
		<edge from-layer="1412" from-port="2" to-layer="1413" to-port="0" />
		<edge from-layer="1413" from-port="1" to-layer="1414" to-port="1" />
		<edge from-layer="1414" from-port="2" to-layer="1416" to-port="0" />
		<edge from-layer="1415" from-port="0" to-layer="1416" to-port="1" />
		<edge from-layer="1416" from-port="2" to-layer="1417" to-port="2" />
		<edge from-layer="1417" from-port="4" to-layer="1424" to-port="1" />
		<edge from-layer="1417" from-port="3" to-layer="1418" to-port="1" />
		<edge from-layer="1418" from-port="2" to-layer="1423" to-port="0" />
		<edge from-layer="1419" from-port="0" to-layer="1423" to-port="1" />
		<edge from-layer="1420" from-port="0" to-layer="1423" to-port="2" />
		<edge from-layer="1421" from-port="0" to-layer="1423" to-port="3" />
		<edge from-layer="1422" from-port="0" to-layer="1423" to-port="4" />
		<edge from-layer="1423" from-port="5" to-layer="1430" to-port="0" />
		<edge from-layer="1423" from-port="5" to-layer="1439" to-port="1" />
		<edge from-layer="1424" from-port="2" to-layer="1429" to-port="0" />
		<edge from-layer="1425" from-port="0" to-layer="1429" to-port="1" />
		<edge from-layer="1426" from-port="0" to-layer="1429" to-port="2" />
		<edge from-layer="1427" from-port="0" to-layer="1429" to-port="3" />
		<edge from-layer="1428" from-port="0" to-layer="1429" to-port="4" />
		<edge from-layer="1429" from-port="5" to-layer="1430" to-port="1" />
		<edge from-layer="1429" from-port="5" to-layer="1439" to-port="0" />
		<edge from-layer="1430" from-port="2" to-layer="1433" to-port="0" />
		<edge from-layer="1431" from-port="0" to-layer="1432" to-port="0" />
		<edge from-layer="1432" from-port="1" to-layer="1433" to-port="1" />
		<edge from-layer="1433" from-port="2" to-layer="1438" to-port="0" />
		<edge from-layer="1434" from-port="0" to-layer="1438" to-port="1" />
		<edge from-layer="1435" from-port="0" to-layer="1438" to-port="2" />
		<edge from-layer="1436" from-port="0" to-layer="1438" to-port="3" />
		<edge from-layer="1437" from-port="0" to-layer="1438" to-port="4" />
		<edge from-layer="1438" from-port="5" to-layer="1445" to-port="0" />
		<edge from-layer="1439" from-port="2" to-layer="1444" to-port="0" />
		<edge from-layer="1440" from-port="0" to-layer="1444" to-port="1" />
		<edge from-layer="1441" from-port="0" to-layer="1444" to-port="2" />
		<edge from-layer="1442" from-port="0" to-layer="1444" to-port="3" />
		<edge from-layer="1443" from-port="0" to-layer="1444" to-port="4" />
		<edge from-layer="1444" from-port="5" to-layer="1445" to-port="1" />
		<edge from-layer="1445" from-port="2" to-layer="1448" to-port="0" />
		<edge from-layer="1446" from-port="0" to-layer="1447" to-port="0" />
		<edge from-layer="1447" from-port="1" to-layer="1448" to-port="1" />
		<edge from-layer="1448" from-port="2" to-layer="1450" to-port="0" />
		<edge from-layer="1449" from-port="1" to-layer="1450" to-port="1" />
		<edge from-layer="1450" from-port="2" to-layer="1451" to-port="0" />
	</edges>
	<rt_info>
		<Runtime_version value="2024.6.0-17404-4c0f47d2335-releases/2024/6" />
		<conversion_parameters>
			<framework value="pytorch" />
			<is_python_object value="True" />
		</conversion_parameters>
		<model_info>
			<iou_threshold value="0.7" />
			<labels value="person bicycle car motorcycle airplane bus train truck boat traffic_light fire_hydrant stop_sign parking_meter bench bird cat dog horse sheep cow elephant bear zebra giraffe backpack umbrella handbag tie suitcase frisbee skis snowboard sports_ball kite baseball_bat baseball_glove skateboard surfboard tennis_racket bottle wine_glass cup fork knife spoon bowl banana apple sandwich orange broccoli carrot hot_dog pizza donut cake chair couch potted_plant bed dining_table toilet tv laptop mouse remote keyboard cell_phone microwave oven toaster sink refrigerator book clock vase scissors teddy_bear hair_drier toothbrush" />
			<model_type value="yolo_v11" />
			<pad_value value="114" />
			<resize_type value="fit_to_window_letterbox" />
			<reverse_input_channels value="YES" />
			<scale_values value="255" />
		</model_info>
		<nncf>
			<quantization>
				<advanced_parameters value="{}" />
				<fast_bias_correction value="True" />
				<ignored_scope value="None" />
				<model_type value="None" />
				<preset value="performance" />
				<subset_size value="128" />
				<target_device value="ANY" />
			</quantization>
		</nncf>
	</rt_info>
</net>
